Taxi Fare Prediction/model1_3000.pth (torch, 6576 bytes, 4 tensors)

weight f8 [32, 11]
000000 5f ed 34 e0 78 d1 b0 bf 4c 8c 12 d3 5f 4b c6 3f
       -0.06569629167363676 0.17417524153015262
000010 12 72 86 17 80 b0 b2 bf cc a2 cb 91 8b 5d b1 bf
       -0.0730056817469136 -0.0678336363740854
000020 5b 4c 41 8c c6 f4 d0 bf 2a 70 55 6f fb 58 c5 3f
       -0.26493991562637625 0.1667780202504912
000030 d1 e9 af 94 45 04 cb 3f 80 6b 7a 7b 56 4b c2 bf
       0.21106786499133404 -0.14292412785729525
000040 9b 3c 1a c4 0f 3e c0 3f 10 cb a4 7b d5 40 be bf
       0.12689396930042993 -0.11817678707738488
000050 f1 ed 79 19 63 d1 c0 bf f9 83 81 41 ea a3 b0 3f
       -0.1313899874111111 0.06500114535585046
000060 8d 44 a5 e2 31 e3 d1 bf f0 69 4c 95 34 41 ab bf
       -0.2794918740592685 -0.053231852745927344
000070 da b5 c8 27 84 39 d2 3f c2 bb 85 96 02 39 c2 3f
       0.28476051221045184 0.1423648104641569
000080 b6 4e f1 d0 e0 51 a5 bf f2 c7 62 2a 68 9b d1 bf
       -0.041640306001366964 -0.275110284225888
000090 bc 12 e4 fa cd e9 c3 bf 63 b3 fe c5 0e 52 c6 bf
       -0.15557265043766744 -0.17437920253487524
0000a0 2b 35 34 1c 4f c9 c9 3f 67 6f 08 fc fd b3 a3 bf
       0.2014559638704808 -0.038482605949154806
0000b0 be 3f e1 8a 94 eb d0 bf 33 c9 60 1d 0a d5 6f 3f
       -0.2643786770104234 0.0038857648424023505
0000c0 1f 01 d9 7d 2a c7 b3 3f d1 b8 bc 1b 5a 88 d2 3f
       0.07725778171971286 0.28957226475439507
0000d0 00 e6 4e 88 d6 76 a9 bf ef c6 cf 71 33 31 c5 3f
       -0.04973478712004109 0.16556399399956187
0000e0 4b a9 29 89 41 67 be bf 89 da eb 18 81 54 bd bf
       -0.11876306151103681 -0.11457068308286912
0000f0 a3 13 63 a6 95 0c c4 bf 34 f4 63 5d d6 7d d1 3f
       -0.15663405060163624 0.2733055030838074
000100 df 17 c5 21 0c 01 ca 3f 91 b7 94 c2 fd 5d be 3f
       0.20315696381493262 0.11862169266234292
000110 bc 71 a4 6f 96 5c c8 3f 0c a9 78 16 be da ad bf
       0.1903255505684579 -0.05830949806507321
000120 3b 2a f1 c5 97 6a d3 3f 31 22 9d d4 56 f6 c3 bf
       0.30338091211584456 -0.15595517522366856
000130 fe 09 fa 07 9b 2d b9 3f b8 36 e2 09 cd bc a5 bf
       0.09835213608497637 -0.042456061798572475
000140 0e e6 3f 88 85 45 b3 bf 2b 3d c3 dc 3f 29 c1 bf
       -0.07527956558615065 -0.13407133368898747
000150 dd c8 33 6e 56 07 c6 bf bc 19 24 43 f1 fe bb 3f
       -0.17209892636271365 0.10935886277375223
000160 3a c1 03 2d ff 35 bc bf df 00 35 66 53 89 7d 3f
       -0.11019892548552415 0.0072110421927506765
000170 cc e9 6f eb 45 6b a7 bf 19 38 1d a8 e4 3f c7 3f
       -0.04574030398358139 0.18163736542413814
000180 0e 43 b1 0b 41 43 c0 3f ee 32 9d 37 d1 8c d0 bf
       0.12705243178290754 -0.25859480315266026
000190 ed c3 98 54 17 d8 c9 bf 68 36 e2 db b7 56 c6 3f
       -0.20190707808208633 0.1745214294100379
0001a0 5c 13 db 09 1f 6d 91 3f 6e 83 24 7a 4a 53 c3 3f
       0.017017827011631112 0.1509793373488963
0001b0 84 d0 f7 49 b3 05 cd bf ff 82 21 05 f2 8f c1 3f
       -0.22673646079750054 0.13720536470921016
0001c0 b3 b1 20 4d 97 8b c1 bf a3 ac 50 30 b2 b9 c5 bf
       -0.13707247987748658 -0.16972949370515264
0001d0 9f 00 f5 b8 2c a4 d2 bf 8d 27 75 32 08 c7 ae 3f
       -0.29127042829714783 0.06011224380433964
0001e0 4c 87 ba 26 b4 d7 b2 3f c4 30 6b 8c 36 f7 bf bf
       0.07360387750170821 -0.12486592224303467
0001f0 41 f7 bc 8c b1 c9 77 bf 14 f7 97 11 57 a8 98 3f
       -0.00580758433699008 0.024079666565731975
000200 ca 99 21 56 66 dc e0 3f dd dd ff e6 3e ac aa 3f
       0.5269042665720971 0.05209538049524174
000210 c1 e8 53 00 9a c6 c0 bf 8c e6 20 92 0e 9e bd 3f
       -0.13106083885197076 0.11569300716009873
000220 d7 1c 74 88 15 49 d1 bf 7a df 50 08 5e 0c d0 3f
       -0.27008570027869666 0.25075484096623024
000230 bb 09 59 e8 85 37 ac 3f 46 92 5e 29 af 16 d0 3f
       0.055111107456940776 0.251384535217117
000240 a6 33 0a ae f0 b5 94 bf 9b 87 5b 6e 2b c6 c9 3f
       -0.020225296614217257 0.20136015785743386
000250 09 36 fa f4 41 ff c5 3f 8f de 7c cb d7 eb c7 3f
       0.1718523451021812 0.1868848556130058
000260 8d 0e 9c bb d1 a8 cb 3f 8a f8 2b 55 9d 86 3c 3f
       0.21608945522904258 0.0004352697480242215
000270 44 75 0a b9 50 42 a0 bf 41 68 4b 60 4a 62 c9 bf
       -0.03175594576644383 -0.1983120889843253
000280 ce c1 71 79 f5 a5 ce bf 0e 7c d3 6f 50 4a d0 3f
       -0.23943966321850357 0.25453577919501036
000290 3a ee 43 2c 6e 41 8f bf 33 e9 e0 b7 32 e3 a5 3f
       -0.015261517263289826 0.04274900908099468
0002a0 d7 26 b8 dc 6b d1 cc 3f 58 34 bc ff f0 39 bf 3f
       0.22514103200256017 0.12197786563429369
0002b0 4f 90 51 5b 62 47 d2 bf 91 98 e6 78 2e 40 c9 bf
       -0.2856069461615833 -0.19727116492612543
0002c0 c0 f1 05 b6 3d b0 d2 3f 8a 1e 27 c6 5f d9 b9 3f
       0.29200690055565914 0.1009731158038624
0002d0 4e 30 33 00 f0 06 d0 3f 63 c2 5b 85 3a 77 c0 bf
       0.25042343158270775 -0.1286385680355294
0002e0 e8 8a cb fe c0 80 d1 3f 31 76 c3 77 42 d9 c3 bf
       0.2734835136636051 -0.15506773803547128
0002f0 c0 3b e8 2c 91 2e bf 3f 63 0b 11 01 cf c2 c3 3f
       0.1218043074261308 0.15438258697585203
000300 0b 3d 9d 16 87 2b c8 3f f5 35 61 7f 6e 42 b6 3f
       0.18882835964402775 0.08695116624695472
000310 38 80 b4 40 af 0e 9d bf 7c 4d 45 ea fb fc d2 bf
       -0.028376329731259115 -0.2966909206199586
000320 fa d6 1b a9 19 33 c4 bf d2 c6 45 fc 11 48 c8 3f
       -0.15780945546401154 0.18969940965648974
000330 3f 57 c4 86 66 f6 a7 3f eb fc ea 39 ca 6a c5 bf
       0.04680176158050963 -0.16732147052787325
000340 79 2b 5b 8a cd 56 ba 3f bd 0c d4 a2 f3 b0 9b bf
       0.10288700702510124 -0.027042204678775706
000350 e0 ed bd 0d 26 e6 bf bf a8 9d 48 bd 14 bc af 3f
       -0.12460553966041443 0.06198181925384044
000360 ff c4 22 c5 f3 b6 c7 bf 25 37 93 f2 6f 59 b0 bf
       -0.18527075887462982 -0.06386470482103997
000370 88 75 c9 49 a1 93 cf 3f 21 ff 7b 45 33 61 a0 3f
       0.24669281103971863 0.03199157927701735
000380 41 4b 73 73 f4 a4 87 bf 3b 37 43 93 b2 f9 bb 3f
       -0.011545095227494808 0.1092788323905695
000390 55 b8 2f d1 8a 7c c1 3f 05 c5 df 7f cd bc d2 3f
       0.13661322797946931 0.2927736042757519
0003a0 44 34 98 4d 41 31 c2 bf b0 21 8d c1 1a cc d2 3f
       -0.14212814606472268 0.2937075510167473
0003b0 d1 b7 e5 40 c8 f3 d1 3f d3 21 19 e4 da eb c3 3f
       0.2805042871249244 0.15563522470098565
0003c0 86 63 91 3b 54 33 cc bf 2f 67 17 d9 20 3c cf bf
       -0.22031643780317384 -0.2440224704758349
0003d0 55 c5 25 52 8a 84 a3 bf 2f 9a 7f c5 9f 96 d1 bf
       -0.038120577361847076 -0.27481836592633874
0003e0 94 4b b2 00 d4 cf c3 3f 2b 8f 41 9f 0b 9c 9e bf
       0.1547799113655769 -0.029892140956135165
0003f0 55 12 15 e2 a4 83 d1 3f 46 b5 83 5f a6 2d b1 bf
       0.2736599166712826 -0.06710281211754418
000400 6f ef 5a 03 e1 01 cc 3f c6 c3 ad 60 58 c2 cd 3f
       0.2188073412306681 0.23249344559329027
000410 ec 4e 8a b7 28 0b d7 3f 3f 3d 56 87 8c 9b da bf
       0.36005609439710784 -0.41574395386210833
000420 76 10 33 5e 89 a2 cf bf 22 c3 61 f9 cc d2 b3 bf
       -0.24714772319396489 -0.07743531311440369
000430 9f 58 13 2a e3 16 c6 3f 20 6e 0e 35 4b a3 9c 3f
       0.17257346682044258 0.027966666329673484
000440 8f 1b 6a bf 3f d7 ba bf 9a 59 86 80 a0 01 c3 3f
       -0.10484693930821563 0.14848715091347914
000450 6c 26 b2 d1 a3 95 bf bf 96 cc 09 aa c0 f8 c7 bf
       -0.12337707395104197 -0.18727882673883717
000460 a9 e8 4f 1d 40 46 d0 bf 37 8e 9d 6a 48 c7 a3 bf
       -0.2542877470256238 -0.038629782690602736
000470 a2 83 92 e3 89 4b a9 3f 5b 5b fe dc 6c 4e cd bf
       0.04940443900091586 -0.22895584860517712
000480 1c 23 f3 8e c2 26 c5 3f fc be e8 4f 6c e4 cd 3f
       0.16524536113708954 0.23353341962637575
000490 48 84 6a 3b 3e 9f b3 3f 41 7d 36 62 3e 15 b7 3f
       0.07664860678279795 0.09016790292524936
0004a0 ef f1 23 1e af 50 74 bf a1 9c 26 6e 4f a7 d0 3f
       -0.004959758809715427 0.26021180874745126
0004b0 c9 c3 e8 bc 04 5d 92 3f aa ff 33 6d 3f 22 c9 bf
       0.017932962446312737 -0.19635765869315708
0004c0 03 35 1f 08 83 4d d0 3f 4d 98 68 ca 79 cc cb 3f
       0.2547309474292236 0.21717760451537274
0004d0 56 ea 66 c6 8a 6b c7 3f 95 da 96 b2 7d 5a ca 3f
       0.18296942412946987 0.20588656635455452
0004e0 6d 33 89 85 0a 52 cb bf 75 c1 93 26 1a 07 c5 3f
       -0.21344119568166367 0.16427924045229828
0004f0 09 dc 4c 0e 81 6d cf bf 91 68 e8 fe 6e 53 a6 3f
       -0.2455293006730417 0.04360529767673527
000500 4d 6d cd 63 34 74 b9 bf bc ff ff 06 8a 92 a2 3f
       -0.09942939220984677 0.03627425513695878
000510 dd 2e 3b 89 e5 e7 c2 bf 6f 45 e4 03 3c c0 d1 bf
       -0.14770192337743185 -0.2773580587391597
000520 78 13 07 f3 d5 57 b0 bf 23 df 7d 9d 0c 2f ba 3f
       -0.0638402670220567 0.10228041501056544
000530 b3 13 75 a6 bb 1e c9 3f a9 82 d5 bd 8e a3 c1 3f
       0.19625039699363142 0.13780388135184765
000540 7f a1 74 98 ef 67 8b 3f 12 f4 53 cf 06 84 5e bf
       0.013381835784983974 -0.0018625322821315166
000550 7c 1f 47 3f 70 79 b4 3f 9e 04 e2 4e e0 a3 bf bf
       0.07997800392979387 -0.1235943024239696
000560 49 0a 26 24 06 3a 8b 3f e1 42 13 23 64 56 c0 bf
       0.01329426572624927 -0.12763644898088614
000570 54 50 e8 69 75 8d b0 3f 5e aa 69 67 9e 43 b5 bf
       0.06465848765975696 -0.08306303047872052
000580 51 e0 66 09 9d 22 ca 3f a4 b6 64 6c 95 10 c1 bf
       0.20418131789279184 -0.13331859390875878
000590 4b 82 83 7b d6 87 d0 3f 38 4d 2f e2 f3 5f cd 3f
       0.2582908827007812 0.22949074310472795
0005a0 58 9b dd c6 85 97 cb 3f c5 6e d3 43 7c d7 c3 3f
       0.21556160173642058 0.15501359283267938
0005b0 e6 7e 5a 8d 6f 0d ba bf 78 3e 4d a1 88 43 c7 bf
       -0.10176751328480868 -0.18174846530972721
0005c0 6a d4 ac 49 41 2b 77 3f b3 2c 46 0b 46 b2 9b bf
       0.005656485586588914 -0.027047247350804948
0005d0 26 6e ba 8a ab 98 c0 3f e9 c0 33 7e 39 d3 cf 3f
       0.1296591212638855 0.24863356268134076
0005e0 36 8b 99 9e 26 8f cc bf 30 f2 b7 c2 6b eb c9 3f
       -0.22311861747865586 0.20249697692624258
0005f0 9b 0f bc 92 75 8d c7 bf 81 cf 42 81 de 77 cc 3f
       -0.18400449433113128 0.22240811645098904
000600 31 7a 6b 69 17 c2 ad bf ea 37 70 ed 67 3b b1 bf
       -0.05812142526496123 -0.06731271311602396
000610 95 bc 7d 50 7e 76 d2 bf 13 b6 6e 24 d3 f4 c1 3f
       -0.28848226414170003 0.1402839591877841
000620 38 bc 0b a9 0d 40 c8 3f 29 d8 ab b4 77 df c9 3f
       0.18945475343886797 0.20213218995894636
000630 55 ce c0 76 df 42 cb 3f aa 68 97 09 1e 40 c1 bf
       0.21297829912656377 -0.1347692057450492
000640 33 cb f1 fe 50 bd bc 3f b1 d5 2f 82 ae c6 d1 3f
       0.11226373886328815 0.2777515670162201
000650 9f f8 d4 c1 2e a3 d0 3f 72 b3 40 8f d0 cd cf bf
       0.2599598782434302 -0.248468465755106
000660 8a f5 b3 d1 7e b3 c1 bf 03 e9 69 d1 be 20 bd bf
       -0.1382902645054112 -0.11378090489043662
000670 3a df c9 c2 6f c3 ca bf 44 b6 c4 fa 20 5f 93 bf
       -0.20908925067100786 -0.01891757517403493
000680 6d a9 a5 99 02 e5 ba bf bd de cb c4 8b d4 a8 bf
       -0.10505691767835908 -0.04849659707354934
000690 b9 27 80 a7 10 f1 b8 3f 88 9d 89 66 76 55 b6 bf
       0.09742836083765284 -0.08724155429228209
0006a0 e5 40 34 e2 73 57 99 3f bf f7 81 ce 64 6c c7 3f
       0.024747667962459103 0.18299541552909024
0006b0 2c 6f 35 95 80 82 b0 3f fe 05 3a 38 6e bc d3 bf
       0.06449130671302034 -0.3083758877838533
0006c0 85 24 17 d0 60 bc bc bf 27 f4 26 56 4a d4 cc bf
       -0.11224942283947044 -0.22522858816765387
0006d0 0d 54 5c 27 ee 35 cf bf 2d e3 76 2f 91 e5 d5 3f
       -0.24383332178027253 0.3421366656798906
0006e0 47 a3 5c 0d cc 95 b1 bf db cc 60 cd 9d 2f c9 3f
       -0.06869197202889864 0.19676563766697694
0006f0 98 e3 e1 31 f0 98 d1 bf ab 8a a0 67 e6 1c d3 bf
       -0.27495961066557006 -0.29863891715846574
000700 94 6e 37 5f ba 00 c1 bf 5a 75 3b e4 e8 a9 c0 3f
       -0.13283471726650886 0.1301852335372285
000710 1f 16 ab b9 43 46 c6 bf ef ca 28 55 93 b0 c2 3f
       -0.17401930394969242 0.1460136571709749
000720 fa c6 86 d8 7f f5 ab 3f 5c bb 2e f8 ec e8 c4 bf
       0.0546073867620986 -0.16335832708633802
000730 18 f8 0d 7d 24 1e c3 bf 67 cb 7b 93 f9 a1 76 3f
       -0.14935737711124442 0.005525565058394167
000740 25 0c 36 ca b0 a3 d0 bf 4f 4b 9a e3 7d 2c b1 bf
       -0.2599908804624554 -0.06708514029223277
000750 a5 be ec 9e ed 76 88 3f ff 1b 18 54 5e e1 b2 3f
       0.011945587551593315 0.07375134995537279
000760 b5 eb e0 22 3b a0 b1 bf fb 9f 75 c0 35 3b d2 3f
       -0.06885118104484785 0.2848638896452937
000770 83 68 a5 f7 9c f5 d0 bf cf 80 3b f2 f5 8e aa 3f
       -0.2649910372180175 0.05187195379198927
000780 41 30 ea 67 48 54 c7 3f c0 6a df fe 77 39 cc 3f
       0.18225960802044663 0.22050380654294166
000790 bf 88 bb c4 eb 82 d0 3f 16 40 17 c2 72 38 8d 3f
       0.2579907819000588 0.014267822788411915
0007a0 63 78 30 db 1d 8d d2 bf fa 36 98 34 c5 7d a4 bf
       -0.28986307530602157 -0.040022051496732616
0007b0 43 a6 60 a6 3f 3e c3 bf 5c 72 5d 2d 92 38 c5 bf
       -0.15033717750456974 -0.16578891005601093
0007c0 c0 11 62 3e dd 5d c0 3f 73 10 2c f6 67 d4 be 3f
       0.12786450906800262 0.12042855987607641
0007d0 d4 37 18 88 16 31 bb bf e4 9c fe c7 24 fb c1 3f
       -0.10621777365324131 0.14047679677353309
0007e0 68 9e a5 91 3e ee d2 3f 98 48 91 2e 9f 1b d0 bf
       0.2957912847836952 -0.2516859011422041
0007f0 b9 cd 89 a4 61 30 d1 3f 39 83 3c 33 78 23 d2 3f
       0.2685779673404017 0.283414888415837

bias f8 [32]
000000 12 73 13 09 a0 af a6 bf e2 2e e8 ec 8a c4 b1 bf
       -0.04430866347113328 -0.06940525325643024
000010 d6 c4 f9 77 4f ef b2 3f bd 8c 18 83 e1 6d c0 bf
       0.07396408728688483 -0.12835329915205831
000020 b0 99 59 a1 8f ac c8 3f 80 7b 31 f6 a8 c9 c4 bf
       0.1927661455003551 -0.1624041750064542
000030 f5 c7 39 e0 1c 55 a3 3f 63 6a d2 b9 09 17 b4 bf
       0.03775873410349099 -0.0784765318552814
000040 6a de f8 97 88 cb c6 bf 2b 5f dd 00 77 53 cf bf
       -0.178086351590298 -0.2447346452925044
000050 1f 4f 0d 23 03 7c a0 3f a2 66 5b df d6 1e ab bf
       0.03219613840943069 -0.052969660535109556
000060 72 82 af 96 6c 58 d5 3f dd 9f d4 c7 b0 9b d1 bf
       0.3335219832934292 -0.2751275969953875
000070 08 ee d8 f5 9a ac a3 3f 43 8c f9 7f f0 6f cf 3f
       0.03842624903742481 0.24560362099427566
000080 70 76 77 d7 09 f2 d1 3f 30 0d 98 fd a6 d7 ad bf
       0.28039785424866803 -0.05828592153195655
000090 85 ba 49 71 2d ab c3 bf 56 bc a6 c3 3b 26 c0 bf
       -0.15366142303124178 -0.12616679242407497
0000a0 2d 68 65 1d 59 db cd bf ff b5 29 aa 7b 0b 90 3f
       -0.2332564729247805 0.01566880441753504
0000b0 c5 82 2e 08 ed d0 ba bf 73 f5 9c b4 0f cd aa bf
       -0.10475045633075826 -0.052345743939876586
0000c0 05 1c 6a 23 0d c1 d0 3f ef 5e 6d 0d be e2 b4 3f
       0.26178291758009237 0.08158481433690289
0000d0 15 dd 39 c1 b5 f0 cc bf 9f 29 98 88 4e b3 bf 3f
       -0.22609588560929042 0.12382975420783858
0000e0 66 0b a8 14 72 1a ce bf e3 3e 97 11 af 93 cb bf
       -0.23518205650915575 -0.2154444538014025
0000f0 6a f1 eb e1 4e 55 ca 3f 69 d8 2f 42 a9 86 c5 bf
       0.20572839766817747 -0.16817203265935923

weight f8 [1, 32]
000000 f0 f7 25 39 57 f3 b1 3f ea fb b6 62 f5 70 c4 3f
       0.0701193346521618 0.15969722099359213
000010 8e a7 07 9b 60 db ba bf 0a ae 5a b9 18 50 b9 3f
       -0.10490993294629744 0.09887842679261652
000020 5c fa c6 8b ed 3e c5 3f 21 17 54 22 5a 7c d6 3f
       0.16598290753423128 0.3513398490180056
000030 33 dd f9 68 ee d6 b9 bf a4 cc 49 51 a2 2c 8e bf
       -0.10093584120646852 -0.014733570199700737
000040 94 5b 92 7d df 8a b5 3f ae 87 cc e0 1a 54 b1 3f
       0.08415028396335195 0.06768959034209729
000050 20 da 29 d4 7e 74 7a bf 85 ad aa 34 96 c6 c9 3f
       -0.006458754944665773 0.2013728863870307
000060 08 e3 41 05 f7 34 c0 3f fd 8b cd 81 cd 69 b7 bf
       0.12661636120517294 -0.09145817202583824
000070 19 7f 8a 3e 3b 23 a0 bf 66 24 49 6a 05 40 bb 3f
       -0.03151879442634548 0.10644563526979453
000080 f1 e5 a5 b8 23 8c b0 3f 84 2b bf 43 bd fa 92 bf
       0.06463835962303911 -0.01853461957925219
000090 8a 79 49 f0 b7 33 c2 3f dd ad e1 5a 82 6f d3 bf
       0.14220332367672156 -0.3036809813990809
0000a0 e7 07 50 1f a9 83 bc 3f b2 97 ac 79 8c e2 bd 3f
       0.11138398184269215 0.11673810930787346
0000b0 7a ce 73 db db 90 ac 3f 8a 24 d2 9d b2 40 e4 bf
       0.05579268506872111 -0.6328976709784382
0000c0 25 c9 1e 5e 75 52 c3 bf 88 d2 8b f5 58 99 d0 3f
       -0.15095393272128735 0.2593595884239126
0000d0 1e ce a2 a4 79 1a bd bf eb 5d 04 22 d4 4c 7c 3f
       -0.1136852290099388 0.006909207004603494
0000e0 65 d5 21 6c bf a1 a0 bf a0 15 55 5e 09 87 c2 3f
       -0.032484037351347785 0.14474598985740972
0000f0 ec c4 a4 69 33 ce cc bf 3b 67 1c a9 1a 69 b5 3f
       -0.22504274996166573 0.08363501194653804

bias f8 [1]
000000 41 c7 d6 23 bc 29 8c 3f
       0.01375147804614907
