Taxi Fare Prediction/model2.pth (torch, 32820 bytes, 8 tensors)

weight f8 [32, 11]
00000000: a797 2eb3 6cb4 c3bf f8b8 d8f0 2b7a ae3f
00000010: 9fd5 dad2 e5a1 abbf d323 3fbe d4a9 9a3f
00000020: 07f4 cc1c 898d cebf f2e5 02bf 343b c6bf
00000030: bd73 bce2 435e bcbf 8787 d4e7 963e babf
00000040: 6a27 cc31 4440 c0bf 0c98 4363 7ee8 c23f
00000050: 305b 0fdb ea92 c03f 1d5a 7124 298d a13f
00000060: 57c6 cd00 6b1a cfbf aef2 c7c9 cab9 b0bf
00000070: deb8 4411 519d d03f 59a9 24fa 338a 75bf
00000080: 1679 6759 1537 c2bf 376d 3b0f c416 c9bf
00000090: cc6b 4b5e bda0 b43f 5a3c a023 ad29 d0bf
000000a0: 4cb5 0256 de23 c13f 6f14 991a 643f d5bf
000000b0: 3e80 c40a cae6 d0bf 195e 2989 5152 ca3f
000000c0: 97a9 ae4a 9ada 963f 8095 2528 c804 d0bf
000000d0: caf3 c0a2 acb9 783f 1a3c e08e 3024 c03f
000000e0: 9dc6 caad e6fa c23f 63fb 22d3 7cc2 cfbf
000000f0: 026c 952d 6bbd b13f 3117 0e2a 41ad cebf
00000100: 15ff 3747 8d4c d13f c9d6 59dc 227d c73f
00000110: 6d11 270b 14ff adbf 552d 937a 467b a4bf
00000120: 597b cac6 309e cfbf 0b24 70a3 8079 a0bf
00000130: 45cb 312e a28d ccbf e088 3645 c5eb cb3f
00000140: ec90 4e3b df54 d2bf 5b0e 9a13 b6b4 b7bf
00000150: 6150 9a49 5072 a63f 4318 0269 64ff d9bf
00000160: 858e 4dfd efa4 d43f 34ee 4c3a 45cf 98bf
00000170: e609 01d7 8892 a13f 602c 499a acf3 b2bf
00000180: 8a27 dbd1 f9d4 bf3f 3b10 4336 d3e7 943f
00000190: efaf b9bb 1293 c53f 7d41 d588 84d5 d0bf
000001a0: 1c88 2fc1 2353 783f 6e2f bfa8 c560 d93f
000001b0: 0dbe ae11 82e0 d93f 8cd9 fb8b fb71 a23f
000001c0: 4bbf f315 2dcf c33f 2153 a364 51c2 9cbf
000001d0: 6265 b71f ab34 c5bf 60a7 eb1c 4fce c8bf
000001e0: ad05 4d67 cb78 893f fe8e 4819 2e32 c83f
000001f0: 7497 1245 a238 d1bf a6c9 5fa9 7ebf c83f
00000200: 09e7 e005 c375 9cbf 5856 1ed9 8a2c d3bf
00000210: 51df 2c5e 794f a33f 51c1 9a43 ca2e adbf
00000220: d7ac 466a 39e2 ce3f 6109 969e b0c7 b6bf
00000230: 0453 353a 9acc a2bf 9359 6f83 5f9b d13f
00000240: c9c7 01c3 0a83 c03f ce3f 3523 198c c3bf
00000250: 54d3 0514 d10f b63f 604f fb62 9dab d33f
00000260: dabd 7b5e 2ebe d5bf c51c 0361 d41b bb3f
00000270: 205e 9738 6ebd c93f 1306 7e87 8f16 b2bf
00000280: fd00 ccbe aff7 b1bf bdc4 1ff9 192d b8bf
00000290: 5129 b2b4 543c b03f e925 f6b1 f254 ba3f
000002a0: c230 befb f67a a2bf 3d5a 9ff3 0d8f bd3f
000002b0: e43d 5215 b481 c23f 7d78 254d c290 c03f
000002c0: 6747 fe31 e817 b3bf 0d57 f4a4 014e b83f
000002d0: 4ca6 97ce 2607 a5bf ec6c 28dd 529f cb3f
000002e0: fe8f ff80 f39d c8bf bdd5 6ea1 c1e5 d13f
000002f0: 7030 5b47 b6dd d1bf a1ce f69e dacf afbf
00000300: cd89 7227 2e1f d1bf 3102 8034 5e15 c33f
00000310: d7d1 2614 0f22 d0bf 4840 dd90 fe80 98bf
00000320: 2eb5 ef37 b266 723f b78e b720 7818 c4bf
00000330: eddf 686d c206 ac3f 998c 75a8 62bd cabf
00000340: f597 dda0 6b56 cbbf 8968 cb9c 8d61 993f
00000350: 6c4d d982 7df1 82bf 5ca8 dc3e 6856 c63f
00000360: 30c7 39c1 f3d5 d2bf 2f23 304f daad cf3f
00000370: 0610 b945 e96d bbbf b5e4 0f9d 5b8a b63f
00000380: 89c7 cf79 a892 c0bf b404 c76d 3630 b6bf
00000390: 37c4 02bd 3a83 adbf 599d 3062 f989 bf3f
000003a0: 4db6 0952 4967 c53f 36ab fc85 62f9 bb3f
000003b0: 1d2f c500 8971 b7bf 2ac2 8d2c 0896 b23f
000003c0: 0959 b501 93e9 da3f 0a67 26f2 20d9 b13f
000003d0: e358 5c68 e0b8 bcbf 31b9 30d4 9332 afbf
000003e0: 1289 bba0 1b02 c13f bd6b ddbe 5474 a2bf
000003f0: 1262 351a 086a b43f 2981 2669 839e c33f
00000400: b82b ea9d da97 dabf 0d7f 01f1 6f9c c2bf
00000410: 7622 e9d7 29d4 a1bf ee2a cf17 8728 d0bf
00000420: a5ed f741 d995 a13f 42d7 f50b abaa b8bf
00000430: 6d4a 6fe8 d41b c53f 23b6 905e dc17 a4bf
00000440: 84dd 6d1e ecd9 b63f 5287 a6c1 916b cf3f
00000450: d179 dba2 cb5e 733f d27a 93b4 263b b43f
00000460: c3ec 4725 975f c9bf 516c 98ab b40e ae3f
00000470: ab81 2864 1e48 d5bf 6043 6094 e871 d3bf
00000480: c6c5 da95 7f7b ce3f 7e11 5e87 7e3c d13f
00000490: 3082 40cd 7c71 d2bf b351 b302 a538 b2bf
000004a0: 2a48 27bb 28a7 bd3f 6684 eea3 ff35 d1bf
000004b0: a0d1 00e9 0af4 d03f 9003 40f8 8810 af3f
000004c0: 243c 5019 eb46 aa3f b511 d4a2 7c82 b2bf
000004d0: 1949 5758 0cbb cdbf f2f0 ef7b 60de cbbf
000004e0: fccc a761 ea18 c73f 64e7 e04e ca8c cebf
000004f0: 2053 0eac 795a 9d3f 6b8c 3254 b32f b5bf
00000500: 59e8 06e3 910b c1bf 167a aa6f 295b b73f
00000510: 3901 43c6 e9f0 c03f 78c3 0d35 9d3e e43f
00000520: 18b3 cc39 2342 e23f e785 eb2b 2002 d4bf
00000530: dc33 5efa c72b c73f 1b41 eefb 2bbe c1bf
00000540: 2ed8 a8c8 9f18 d3bf 558f 8e8f c85c 9d3f
00000550: f737 9112 2044 cd3f bba9 78da 4b43 bcbf
00000560: 2bb5 225c e84d 993f fc59 1443 f4e1 cdbf
00000570: fc55 115b 336d ce3f 7e68 223b 432e ae3f
00000580: f590 f4a6 652b afbf 2739 8711 0b7b b33f
00000590: cfef 1799 d8ee d13f aaa4 4b12 2afe 93bf
000005a0: 5487 52c6 7084 babf 1d42 5301 6fef b33f
000005b0: 0a19 398c 96a9 b53f f5c1 9906 6d62 b5bf
000005c0: 94a6 5381 ab1e c53f 7d86 6d4e 2b5f b3bf
000005d0: f81e db6b 43f1 c93f b86b 93b7 c57b cfbf
000005e0: f1eb 4304 eba7 c53f d33d e229 84f1 cfbf
000005f0: 5c2a 89f0 108d c73f f260 1ad2 bc00 d13f
00000600: 4ab2 5515 e04a c73f 76c5 8560 748a ca3f
00000610: 160a ba1e ee3d c9bf 4231 17cf 1d7c d1bf
00000620: 372c 0914 bc9d d6bf f5ad e7bc 7c74 623f
00000630: 88b1 2508 927f c5bf 5aa1 02dc f5df c1bf
00000640: 53c2 64cd 7bd8 bd3f 2f6c 9934 b801 ce3f
00000650: cf48 1d29 e420 c4bf a4d5 9842 1d2c cfbf
00000660: 3c0b 9d71 44e8 b6bf 5d63 dbbf 887b a9bf
00000670: 9743 4abe e9a8 b0bf 06ea e2b4 59ad b5bf
00000680: 1e8f 1e64 c2a8 c03f 43ed 34ef 1463 b7bf
00000690: c38c 1afd d7c5 cd3f c890 9d5a c47d cdbf
000006a0: 73b4 d1f4 55e9 97bf dd9e f4ad ff16 b93f
000006b0: 6c82 685a 1e90 b03f 0a73 365f 5828 a23f
000006c0: 3b04 9ec8 2f60 c3bf 13b7 2797 b5be d03f
000006d0: 49cc f386 5188 acbf 6bc8 d94e c98d c7bf
000006e0: 9f3a b542 0d39 ccbf 99e9 d6a1 c8a2 cbbf
000006f0: 610d 46bc 9f5b d1bf 7176 bce3 544e a43f
00000700: ce94 7535 8581 c8bf 1927 eb25 b37c c9bf
00000710: 03c2 94e2 959d d63f ca14 6752 748d cc3f
00000720: f8e4 1b0e b7f0 63bf 0303 b8d4 b375 c03f
00000730: 4966 d047 8ab8 c03f 2430 87de 33d4 c3bf
00000740: a210 5e50 660f d1bf bc26 4639 7e88 c7bf
00000750: bad6 d317 21a7 923f 6da4 2b57 2f13 d03f
00000760: d57c 29e8 315b cc3f b926 757a e5f9 d73f
00000770: bd4f e806 d949 b4bf 3749 84bf 7aac d03f
00000780: ff81 c92c 956f a5bf b9d4 ad3d dde7 cdbf
00000790: ef23 6eb1 ed52 923f 87fd f4c3 d557 b2bf
000007a0: 4d4d b759 b87a b03f e155 6d2d 4fb1 c53f
000007b0: 0eee fe00 21cb c03f 1f0c 0ab5 ea9f 72bf
000007c0: b30a a19d 8a9d b2bf 6030 2280 8d3b c93f
000007d0: aafc 8659 a836 d13f e0cb e621 3530 b63f
000007e0: 1818 af60 2cb5 e0bf 312c f3a6 9dda c23f
000007f0: 5912 fc86 cd5e cabf 6027 4634 8018 d13f
-0.15394362210389298 0.05952584567090641 -0.053969556798090006 0.026038478957875654 -0.23869432359961726 -0.17368182493900935 -0.1108133724741966 -0.10251753959576436
-0.12696125442044642 0.1477201447189035 0.12948356338775957 0.034280095766622255 -0.24299371279953405 -0.06533496309561812 0.2596018475186507 -0.005258753810532057
-0.1423060118240264 -0.19600725883251766 0.08057769348253813 -0.25254372099965894 0.13390711974845215 -0.33199408147294823 -0.26408625651857054 0.20563716122954714
0.022318278129810656 -0.25029186173045304 0.006036447866844827 0.1261044213901819 0.14828189359609648 -0.24812279042631777 0.06929654944308086 -0.2396623092028505
0.2702973552222699 0.18350635299036913 -0.058586717950251145 -0.04000301595950854 -0.24701509195889562 -0.03217699046224006 -0.22307231193152624 0.2181326473192433
-0.28643017570199336 -0.09260118464049454 0.04384089373084588 -0.40621290449815123 0.32256698357216634 -0.02422817390764305 0.03432109474717375 -0.07403067366355875
0.1243435036987234 0.020415592371833418 0.16855081716801076 -0.2630320869693817 0.005938663164643667 0.3965315006178035 0.40432788588347607 0.03602586826120832
0.15476001331216546 -0.028085014121489785 -0.16566981362010852 -0.19379605209479234 0.01243742856024962 0.18903137430708478 -0.269081656888708 0.19334395666335275
-0.027792975648686134 -0.2995936508462811 0.037715714212423486 -0.05699760508776087 0.2412788170744082 -0.08898452636461719 -0.036717242818360446 0.2751082213921105
0.12899908563446008 -0.15271295756474362 0.08617884386860669 0.3073495356195419 -0.33973273493663003 0.10589339607678301 0.20109346163984387 -0.07065674837033269
-0.07018564613463592 -0.09443819362765545 0.06342057620546383 0.10285870404017995 -0.03609439681085426 0.11546408841909624 0.14458323517872806 0.1294176937762507
-0.07458354206599226 0.09494028355797131 -0.04107018730048803 0.21579967306829617 -0.19232028769249604 0.2796482159131662 -0.2791572281682937 -0.06213267508010501
-0.26752809383665693 0.14908959926107593 -0.2520787903588632 -0.023929574577153084 0.004492469945927708 -0.1569967422247964 0.05473907075469229 -0.208904583220918
-0.21357484202161428 0.024786198325138762 -0.009249668651284813 0.17451193875723703 -0.294308603951424 0.24749306551555025 -0.10714586212367302 0.08804867348216557
-0.12947565028985888 -0.08667316608536418 -0.057641826222046104 0.12319906851972941 0.167214551026904 0.10927406092802702 -0.09157615917973456 0.07260180557001009
0.42050624052843993 0.06971937095513794 -0.11219599292630593 -0.06093275037015856 0.1328768286539988 -0.03604378538030726 0.07974291457993157 0.15327494272515566
-0.4155184309135467 -0.14539908664573212 -0.034821803671154436 -0.2524736149322696 0.034346379568855036 -0.09635418931960962 0.16491185521461507 -0.03924454359399145
0.0892627310075707 0.24547025638190206 0.0047290758645588 0.07902757557483689 -0.19822968788489534 0.058705945917801323 -0.33252677708699235 -0.303827423952546
0.2381438714706247 0.26931727618673296 -0.2881767277158671 -0.07117682758263903 0.11583189553428555 -0.268920812692221 0.26489517931192985 0.0606730273284547
0.05132231410981827 -0.0723035714655172 -0.23227075875781436 -0.2177239041483357 0.18044786232312748 -0.23867157794466742 0.028665448309385444 -0.08275910192109996
-0.13316558442403695 0.09123476959437257 0.1323520868372812 0.6326433216291738 0.5705734375856961 -0.31262974061072984 0.18102359509467092 -0.13861608315756588
-0.2983779391828446 0.028674253236786146 0.22864151865581991 -0.11040186008236834 0.024711256621846516 -0.2334580733811008 0.237707538096103 0.05894670578818849
-0.06087796843556418 0.0760962407868858 0.28020300818002125 -0.019524247519176065 -0.10358338205199163 0.07787221701006115 0.08461895869649907 -0.08353310977123114
0.16499847235472898 -0.07567091622106577 0.20267527357486137 -0.2459647318235889 0.16918695171611334 -0.24955799145798938 0.1839924978724693 0.2656700183665769
0.18197251359687733 0.2073502990056501 -0.1972024583847804 -0.2732004663819404 -0.3533773608839427 0.0022528110778148266 -0.16795564077200376 -0.1396472286480826
0.11658452763072917 0.23442747658086335 -0.1572537613633984 -0.24353376151854633 -0.08948161863103804 -0.04977061597828112 -0.0650774087500977 -0.08467636743709059
0.13015012634888817 -0.09135561790474349 0.232600210748478 -0.23040060448250288 -0.023351042811942734 0.09800718304597518 0.06469907481415199 0.0354640594698364
-0.15137288375629673 0.26163997422450896 -0.05572752735488302 -0.18401447630054987 -0.22049108273718773 -0.21590526487655096 -0.2712172831163198 0.03966012268049902
-0.19145264730756256 -0.19911803580753754 0.35336825491961593 0.22306684516494207 -0.0024341178221872727 0.12859199415836295 0.13063171869798598 -0.1549134098589785
-0.2665649208868307 -0.18385293766578126 0.018215672568621534 0.2511709548258015 0.2215330489734472 0.37462746580841216 -0.07925182741774868 0.2605273123055158
-0.041866933552913814 -0.2336384345214009 0.017894472078783193 -0.07165275606256759 0.06437256040890312 0.1694735500156375 0.13119900272964496 -0.004547039818706216
-0.07271639202466922 0.1971299052860358 0.26896103613757794 0.08667308881449243 -0.5221158874853726 0.1472966256318116 -0.2060181531052361 0.26712041001211695

bias f8 [32]
00000000: e370 2f51 3b93 a9bf 5d61 a60f bd34 d03f
00000010: 0755 abbd 0431 be3f d18b 9453 7639 d13f
00000020: 7e75 d2a1 073f d5bf 6f3e 2c4b c5c0 6ebf
00000030: bd6f ffbe faae bfbf cf3a b7fb dc29 b33f
00000040: 3be8 d0b5 850d af3f 33dc 3354 da5a 993f
00000050: 20df 371d a167 cabf d13f 8aee 8150 cabf
00000060: a96c a384 f69b 9abf ddfa af2b c0b9 963f
00000070: 086c 88e4 2334 d7bf 25da 8373 edc4 c23f
00000080: eaf8 0e75 08d4 873f 5396 802f 7666 a73f
00000090: f764 f766 3eff cf3f ba50 6494 630d 833f
000000a0: c3bc 90fe 07c8 bb3f 0f43 c6a1 f4de cdbf
000000b0: 9e19 379a c156 c1bf a860 7002 7422 c0bf
000000c0: 9b3f 7191 8cf9 c1bf 989c 4daf eda7 be3f
000000d0: 2289 6d71 1c69 c53f ce99 b57a 1ee7 c1bf
000000e0: d483 0d49 fb4c 98bf e6da 10aa 3943 b4bf
000000f0: 7e98 a07a 234b c7bf 2be4 d2e5 012d a83f
-0.049951413784329345 0.2532189038115769 0.11793546324345892 0.26913221513876545 -0.33197203448238344 -0.0037540295974237063 -0.12376372492820926 0.0748575319805511
0.06065004200395704 0.02476063860828166 -0.20628751684829982 -0.2055818953272124 -0.02598557648239522 0.022192957560032468 -0.3625573856131159 0.1466347517050092
0.011634889671651345 0.045703595446224064 0.24997692134528623 0.009302881208477099 0.10852098431563477 -0.23336656474250403 -0.13546009092369798 -0.12605142706957406
-0.14042813398054652 0.11974988489019933 0.16727023638220212 -0.1398656939665685 -0.023731161435879347 -0.07915077592847872 -0.18198054778730816 0.04721837931123959

weight f8 [64, 32]
00000000: 2516 27e9 7452 913f 09b2 a2d8 f0f7 bbbf
00000010: 6cd8 a71f b482 b13f 8d0b 97b3 faa4 90bf
00000020: 9136 9bdd 9915 b83f 4838 cdf7 7487 c13f
00000030: ef43 c6d6 e23f b8bf a9bc e81d 60df a1bf
00000040: a045 a317 2eee 873f c7ac 7b6e 0f90 92bf
00000050: 7269 a98f 08b5 c53f 40cb a58c 681d b0bf
00000060: 1848 9584 bd30 783f 08d2 6b76 f352 b63f
00000070: befb 56ad fab2 ab3f 6755 fa7c bbf7 c33f
00000080: 5eb4 cfae afc7 bdbf 27c6 d6e2 653a c73f
00000090: 3b96 9599 528a afbf 3bfa 5a1e 0d59 c0bf
000000a0: a087 6249 3f1f a0bf ec3b 0011 4295 a5bf
000000b0: 96f6 26ee cc88 b1bf 1a8c b7f5 e050 753f
000000c0: eeef ff11 8e1e c83f 6239 2791 fbd2 bcbf
000000d0: e0ed d459 9b33 c63f d3f5 307b 323c c2bf
000000e0: ccae 955a 7286 91bf eadc 9516 4f4b c53f
000000f0: 887e abd0 9466 bb3f 3f43 6ce5 a46b babf
00000100: 4b2d a2f4 68c4 903f 69fd 59f4 848f c0bf
00000110: 170e 4400 9bef 733f b86d 82b8 3dc3 c63f
00000120: 3839 2721 de34 c3bf 0c4c 32bd 9e84 a63f
00000130: a389 a97a 12cd a2bf ade9 b79c a284 b73f
00000140: 1e4c eecd 7cdb c63f eaaf 430e 1eaa bfbf
00000150: 1610 22ba 9075 4ebf 58a1 a666 656a a93f
00000160: 7829 d269 a799 a8bf fd8e adfa 13d9 843f
00000170: bf32 12d2 b962 a83f 1809 cc3a 328b c23f
00000180: 2fa8 a5aa eabb c0bf d882 ae72 0940 843f
00000190: dcbc 88fb 2962 c6bf 0a8c 32b4 0d1b c23f
000001a0: c3db aa7d 0669 9b3f 1e14 a716 8e08 823f
000001b0: b442 707b f223 be3f fa60 327e 7275 b13f
000001c0: 0fd2 d310 02de c4bf fbd7 f81d b5ab bc3f
000001d0: 4407 467c d49f a9bf b107 7542 50f6 a63f
000001e0: 936f 123a 74e8 bf3f d2ca 4216 03ba b73f
000001f0: 31d7 6330 9458 9d3f cc04 e3e6 74c3 a2bf
00000200: b800 97d4 408e 96bf c383 06a4 4a73 713f
00000210: e09f 9485 be68 84bf 3ced 658c 1635 a53f
00000220: d372 d51e 877e c03f 2834 6ae2 e528 b3bf
00000230: 1d12 b88c b00b c83f 181d 4087 3178 b03f
00000240: ba96 a84c 86f7 bd3f 8eb1 fbd0 32f5 b43f
00000250: 319a 2621 6de4 b3bf 1542 44dd 9d74 b2bf
00000260: a070 60e5 be4e c93f 2dd8 14dd 1653 c03f
00000270: 2457 e753 319a bdbf 7e51 c249 6310 a03f
00000280: ec38 356c ff0d b7bf c7ed 5b13 9041 bd3f
00000290: a482 9efc eac1 933f 795d 2769 9d00 9cbf
000002a0: 14b1 0d87 546e bb3f 4ccc 8124 0b0f bbbf
000002b0: 9df0 4d9a 85e5 b73f bfe8 2065 d444 8dbf
000002c0: 47f7 939b c2a1 c13f 4a7f 6fda 7aa1 bc3f
000002d0: 47e7 3626 0ad6 b93f c69b 4528 111e c43f
000002e0: 5eea ff34 733a c4bf d1fb 780e aa69 c63f
000002f0: 210d a9ef cee1 a73f 9c02 fa06 0c0b a53f
00000300: d2f7 91b2 89c4 c33f 099f e6d1 fbe7 c53f
00000310: 674f cecd 0590 bf3f 6d1a 3cf6 8ba7 bdbf
00000320: 0e0a 49b2 02f4 a83f e406 1588 3d36 c13f
00000330: 8502 4821 3f3f bb3f 9ba3 5329 c885 963f
00000340: 9cf0 c1e9 cae3 953f dac1 65ea e189 a2bf
00000350: e4dc 8a6f 66c7 b03f 8a84 38ff 6a2c c93f
00000360: bf55 530b 2d90 5ebf 5f28 ffa7 2de4 b33f
00000370: ac1d 25ee 692f 923f 5171 26e3 e341 c33f
00000380: 6519 3b2a 0363 bcbf a38f c900 7d57 a4bf
00000390: c613 31b9 475b 973f 50f3 4042 9625 3e3f
000003a0: b944 990f c317 ae3f 162c 4095 9976 bcbf
000003b0: f0d2 a41a 1ed5 913f bb76 c85b 8981 b53f
000003c0: ae20 b754 1646 c93f e940 ff96 2431 21bf
000003d0: 10b8 9bc3 0995 b23f f10b ebcf 76ee c1bf
000003e0: 9e7b d02b 544b acbf 36b9 f3c3 87e2 bf3f
000003f0: 5fdc ba9a d9ea 97bf 5a94 5dee d559 96bf
00000400: 562d 3765 c308 bbbf f06d 9179 5f07 bf3f
00000410: 7452 5ddd 320b bdbf 3fdb 12fb 19e4 953f
00000420: e32d 40ba fef0 783f 142f 0a11 410c c53f
00000430: 5efc d148 9cde a93f 464a 1313 d9fd c4bf
00000440: 9c3b 9caa 0596 c2bf dbc5 a498 dae2 afbf
00000450: 2083 6624 f98a b03f 3f0b a8b5 5d24 af3f
00000460: d98b 0b02 f830 a3bf 6249 7d11 a7e3 c33f
00000470: db57 081a 4b53 ba3f cc93 d488 4c10 b23f
00000480: f174 cda8 10aa bdbf 6f91 01d1 adc0 a33f
00000490: b625 1d46 0e73 bd3f edf4 ac4c 76c9 bcbf
000004a0: 2aea 35d7 9fbc c03f 6516 029a 21de bcbf
000004b0: 48d1 9f07 80f3 b13f 2259 c5ec 77b1 98bf
000004c0: 6263 c373 67ad c53f c0b4 a739 e932 b03f
000004d0: bfd7 3eea be1d 87bf 9616 327b 660e bf3f
000004e0: 67f8 9975 402c c3bf 665c ad2f c979 c43f
000004f0: 9b2f a19f aa35 c0bf fcb7 454e 56b6 b83f
00000500: 6864 425b 652a c7bf 1cc2 9dae 6f86 c3bf
00000510: 415d a9d6 0ac0 923f 7213 dd2d f0d0 b6bf
00000520: ba8a ed53 3c7e a2bf 7d77 2425 7192 c6bf
00000530: 3e22 2b03 6ad0 b63f 2b4e 30d4 41bc c5bf
00000540: d15e b5e1 d4e8 b83f b5fb bd8a fb77 bc3f
00000550: 08b4 9046 12d1 aabf 2117 dab7 13d3 abbf
00000560: c614 f592 9515 b93f cc6d fce5 611a a4bf
00000570: dca5 4cb1 264c a33f faea db14 e86e 9f3f
00000580: 52d5 d0e5 dc39 79bf 2c00 5c62 183c ae3f
00000590: 1457 d9b4 73f8 c0bf d006 4b9b 5f97 bcbf
000005a0: bd38 9377 f833 c5bf d409 7895 d499 c33f
000005b0: 9c08 8001 a689 94bf fd93 d8d4 0bb1 c4bf
000005c0: 4ea3 aee6 e5c8 c13f e493 c2e1 71fa c3bf
000005d0: d7b5 d947 cb1e c8bf ae34 62b7 1e1b c43f
000005e0: 2354 a349 fa29 8c3f bba1 6317 cd63 bf3f
000005f0: 6eaa 4d9b 4182 c3bf bdac da07 2fa4 b03f
00000600: 0b99 4314 20d2 c43f 015b a528 f01a b33f
00000610: 299b 5ae2 0b11 c03f 3b92 d7ec d1f0 b83f
00000620: 64d3 a4fb 11b0 bb3f ce71 969c b41c babf
00000630: 388f c93e b945 90bf 70ce a1ba 438b 8bbf
00000640: b644 8e4d e220 7b3f f09a ea52 9056 96bf
00000650: c0ca 205b 183b c2bf 50df 92a4 96e1 c7bf
00000660: 2c73 059d a552 b1bf e94b 8725 75b8 c23f
00000670: b9c0 e75d 196a b13f b9f9 ce54 c12f b9bf
00000680: ebec c86c c857 b73f f9a2 e5f1 2b5c c5bf
00000690: 9f28 46b1 2004 b6bf 3880 aa64 36ba c23f
000006a0: de34 1f84 b8a5 b03f 3930 3a47 7a17 c33f
000006b0: bf16 cd95 31f0 a7bf ae75 e4ed 26fe a63f
000006c0: f6dc aca2 5277 953f 2c94 10f5 06ae b83f
000006d0: abc3 3db4 606f c1bf 65d7 6cca fd94 c3bf
000006e0: 1fa0 7d62 212b c7bf 5d9b 032f ae9b a13f
000006f0: a303 5497 56d1 703f 3538 cebc 2d51 b7bf
00000700: b92d 8876 ec5c 68bf 996c 7abf 33c4 89bf
00000710: 4d21 9a1b cbac 603f a7ac 628f cac3 a73f
00000720: 25fb a018 3b88 b2bf 7e7e a40f 7459 bdbf
00000730: 1d06 add6 c0c2 c63f 7c55 ba39 b857 b6bf
00000740: 50f0 b556 6b44 c13f 5902 2190 696e a4bf
00000750: 9ee6 0573 93da b8bf 3457 a400 017e 793f
00000760: 61e8 6d6e 4b0c c4bf 499b 5219 56ba 603f
00000770: a9a8 3ed6 894f c03f ea9f 8b70 b477 b83f
00000780: d13a 8bd4 d2d4 b03f 573f cbc4 e628 6f3f
00000790: 5064 bc74 bb4d b7bf e9d1 3e37 64c0 b3bf
000007a0: c4b5 2a4e 6583 bd3f c98d c270 8793 b9bf
000007b0: 099e 0ee9 5d64 903f cec6 2783 6775 c1bf
000007c0: 1e84 e226 14c3 bcbf 0452 a681 efce b23f
000007d0: a524 cbbc 6037 b93f 4f0f 4b69 0e85 c23f
000007e0: 15a6 313e 28e6 b2bf 19f4 b597 03af bd3f
000007f0: 7626 98ad a391 95bf 90a7 1925 496c abbf
0.01691610978175197 -0.10925202645257327 0.06840062878458902 -0.01625434609537595 0.09407960567770092 0.13694631671609359 -0.09472482436673578 -0.034907344485298815
0.011684761139266808 -0.018127671354631027 0.16958720221266393 -0.06294873651294797 0.005905857376392397 0.08720323220388349 0.054099877986565556 0.1559976921313748
-0.11632822053771139 0.18146966529961725 -0.06160219311531675 -0.12771762830921482 -0.03148839731990383 -0.04215437371760075 -0.06849366010916422 0.005204085110992041
0.1884324634446552 -0.11259434026508111 0.1734499157554259 -0.14246207251737406 -0.01711443593869326 0.16636074641039694 0.10703401655654876 -0.1032050190081124
0.016374244624370687 -0.12937986308314045 0.004867177460485836 0.17783328541996268 -0.1500508939629499 0.043980560870430535 -0.036720826600475286 0.09186760259755174
0.17857322745530352 -0.12368953560115839 -0.0009295422244268738 0.04963986280501115 -0.048047286670299394 0.01017966851004059 0.0476282185491974 0.14487293120334566
-0.130734761546877 0.00988776570540166 -0.17487072736682918 0.14145060824111538 0.026767827434664115 0.008805379930786169 0.1177360106814927 0.06819835263229726
-0.16302514859820902 0.11199504834880251 -0.05004753129016007 0.04484797297710886 0.12464071672223857 0.0926820687625807 0.028658214047900536 -0.03664746588175091
-0.022027028060393333 0.00426034122975322 -0.009965408755832017 0.04142065490574473 0.1288613224559386 -0.07484280374247076 0.1878567397217389 0.06433400680554191
0.11705817576929692 0.08186643221023912 -0.07770425853105035 -0.0720919289781324 0.19771562767062267 0.12753568453780542 -0.11563404367856528 0.03137502932910062
-0.09005733863634519 0.11428165886530116 0.01929442564835661 -0.027346095603062424 0.10715225503162557 -0.10569829598698383 0.09334597603987267 -0.014291438423346013
0.13774902912694584 0.11183898766421155 0.10092223580332159 0.15716757265474096 -0.15803375327944286 0.17509961802167465 0.046644655948080656 0.041099906779895806
0.15443536013839193 0.17114207982125887 0.12329136156614383 -0.11583781015006318 0.04873665262541148 0.1344677843535954 0.10643381655246216 0.021994712374098318
0.02137677242033985 -0.03620820986077762 0.06554260466770107 0.1966680284686258 -0.0018654289136085104 0.07770047523004696 0.017758994255272206 0.150448308861892
-0.11088580876375927 -0.03972998270617658 0.02280914371319278 0.00046000402858563817 0.0587750393430126 -0.11118469137015582 0.017414541603289757 0.08400782099530606
0.19745139252177552 -0.00013116428044535687 0.07258664155571659 -0.14008984710935082 -0.05526221308559019 0.1245503285788104 -0.023356819218602328 -0.021827070878675726
-0.10560246678430948 0.12120625226946635 -0.11345212845237446 0.02137795062000269 0.0060892057699777095 0.1644364674760871 0.05052650822562364 -0.16399682456411052
-0.1452033122118025 -0.06227763284040196 0.06462056292231155 0.06082432596669784 -0.03748297715153343 0.15538490632986696 0.10283345590173047 0.07056120243630842
-0.11587623711735141 0.03857939888328842 0.11503686153186873 -0.11244906780207815 0.13075635917978562 -0.11276445398297026 0.07012176691188643 -0.02411448843607745
0.16935437347890586 0.06327684075923212 -0.0112872042881057 0.12131348140436624 -0.14978795759447225 0.1599666102217469 -0.12663777155318887 0.09653224383302467
-0.1809813209154385 -0.1525401690119147 0.01831070838156035 -0.08912564391819247 -0.03611935162077402 -0.1763440543517695 0.08911764695506805 -0.16980765209938062
0.0973027277990426 0.11120578896769369 -0.052376338113710175 -0.05434476489339902 0.09798559987855801 -0.039263781856984176 0.03769036211299312 0.030696512482772477
-0.006158697969160203 0.059052240378150905 -0.13258215265766948 -0.11168477574667723 -0.16564851606967138 0.15313203142439014 -0.020056337205467942 -0.1616530217444562
0.13894342197206772 -0.15608047030869365 -0.18843976028749296 0.15707763628271237 0.013751941082242486 0.12261659451508582 -0.1524126060788435 0.06500524465325248
0.1626625155397011 0.07462979309398678 0.12552021553457252 0.09742462188985083 0.10815536874436088 -0.1020005113882185 -0.015890974480853276 -0.013449219830568654
0.006623157497316947 -0.02181458955842691 -0.14242844056714965 -0.18657191310716792 -0.06766734202888064 0.14625419933744802 0.06802519362077221 -0.09838493652839632
0.09118321090584273 -0.1668753558290275 -0.08600048377971568 0.14630775370915372 0.06502869821197829 0.14915398099799562 -0.04675440744044356 0.04490777639351094
0.020962992838772863 0.09640544398332968 -0.13621147919505225 -0.1529843557743177 -0.18100373562924774 0.03439087222959956 0.004105890509209428 -0.091082438082794
-0.002973996965243333 -0.012581257134391332 0.0020355193090077273 0.04641564369497902 -0.07239121772088859 -0.11464620000742262 0.17781839830608784 -0.08727599534389258
0.13490049108429725 -0.039904879421105384 -0.09708520467929779 0.00622368232349917 -0.1566252030568789 0.0020419770831553758 0.1274273201100347 0.09557655093851705
0.06574742974337801 0.0038036830140767796 -0.09102985000608155 -0.07715441082729736 0.11528618963594456 -0.09990736487320996 0.016007869100262116 -0.13639539627143055
-0.11235166501366264 0.07347008624339685 0.09850124940125456 0.14468555585164686 -0.0738244201508212 0.11595175222278477 -0.02106338259731052 -0.053560529497942544

bias f8 [64]
00000000: f138 eda8 18bb b33f 60f0 cc22 ec9e c4bf
00000010: 09a6 a101 b1d6 c23f c798 f66a a810 963f
00000020: 9490 0369 c297 b13f 24d3 4d66 eee7 91bf
00000030: 7556 7b37 704f b83f 6fe5 3582 8953 b3bf
00000040: 6d5d 4e33 a12c c13f 297c 073a 5a1d c23f
00000050: ce6e 449e 7965 c0bf 082d 2947 fdcd a3bf
00000060: a0e8 8650 56ff a3bf b0a9 6cd2 339e b8bf
00000070: 8c55 814e 0561 a2bf 2a9a c73a 81ce c23f
00000080: f792 d1ec 51e5 9a3f 77be 3dde ce7e b3bf
00000090: cea0 a9ea 3d5f c0bf c59a d192 039d abbf
000000a0: 0dec 5165 817f a93f 53ed a8a9 7c9c 9d3f
000000b0: ca29 1a5c 4055 c0bf cc60 de76 a38f c43f
000000c0: 62b9 49d2 3506 bd3f 4bab a1a2 e7cf b13f
000000d0: eefd 9b0f f78d 903f 2e07 355c 7d27 b83f
000000e0: 0815 75f7 97a6 ba3f c6ce 1b45 b99c b1bf
000000f0: a23b e0a8 bd0c c3bf 23b5 839f f355 a3bf
00000100: 14bf f629 532d c33f 0923 4649 765b 9e3f
00000110: fbb3 04e9 6570 9dbf 21bf b7d4 237e c0bf
00000120: 1805 81a1 1f46 a83f 19ec f2b0 58b1 c13f
00000130: 23d9 de3f 2615 a53f b9fa d767 9f64 bd3f
00000140: f584 f567 3326 c0bf f48a 8666 9d60 b8bf
00000150: da23 19a2 60ab bfbf dc8e f9e4 f308 acbf
00000160: 9cb6 4d9f e840 c2bf 6929 3344 ccfa ad3f
00000170: 5b4b be6f 6288 bf3f 2109 e0f3 58ff a73f
00000180: 2815 7285 1923 bb3f 6945 e331 118d c8bf
00000190: 48b6 9ebc 8754 a53f 87e6 5392 1884 bcbf
000001a0: de26 a8f7 ebb1 c1bf 3ed0 d97a ac90 b13f
000001b0: 8e0b 2b41 29dc b03f ecb1 e5de 2d40 c0bf
000001c0: 1acd e4ca 3027 b73f aa30 ea40 c5e2 bcbf
000001d0: 2c75 0e37 b58d c23f 625f 2b48 0b23 ba3f
000001e0: 2b25 e4ff 8c27 b33f b7a3 e91f 91c2 ab3f
000001f0: c6d2 c75c c1fc b93f b553 7628 b74b c23f
0.07707361339746278 -0.16109992694134956 0.14717686252269882 0.02154791977741224 0.06872191489998364 -0.017486309999600227 0.09496213297401275 -0.07549342564552373
0.13417449002438833 0.14152076562365437 -0.12809677341362263 -0.03868094915068282 -0.03905744297976921 -0.09616397750202199 -0.03589645942035266 0.146927026463531
0.02626541145254443 -0.07615368772325747 -0.12790655096183062 -0.05393229644032752 0.04980091440025811 0.028917262892929795 -0.12760166642358534 0.1606335001386071
0.11337601074203499 0.06957862587448209 0.016166553809851374 0.09435256482268237 0.10410451690139066 -0.06879766404363882 -0.1488263201321987 -0.0377651340694263
0.14982070492759958 0.02964577505329927 -0.02874907717448492 -0.1288494862233103 0.04741000029071979 0.13822468414386505 0.04117698220891188 0.11481663022275769
-0.1261657960522268 -0.09522422555032134 -0.12370876271701495 -0.054755803776769446 -0.14260585573668016 0.05855406124608715 0.12317481258496114 0.046870021600641694
0.10600432880354005 -0.19180502830435422 0.04166053941240172 -0.11139062473730564 -0.1382422408353738 0.06861379622734007 0.06585939255732695 -0.12695859321264835
0.0904417510362702 -0.1128352435573016 0.1449495810347029 0.10209723007153351 0.07482224700301703 0.05421880259093064 0.10151299014234913 0.1429356525010498

weight f8 [16, 64]
00000000: 8daa 2165 b2ac c1bf 8ca7 5a9a 1143 bcbf
00000010: 7f89 bbfa 22d6 b33f ddd3 046e c024 b5bf
00000020: 05e0 74b1 a6b9 81bf b6aa 082b 424c ab3f
00000030: 11ca e207 fb12 b0bf 4e27 4297 fd53 8e3f
00000040: 4a9a f748 51b9 b0bf 7239 4a24 b284 acbf
00000050: 4e8b c760 29c9 b1bf 605e fbff 9835 96bf
00000060: baed 1c30 4281 94bf f9cd 1b0d 0d36 b0bf
00000070: 11c6 dde7 4ec8 9b3f 42b8 18ef 06f6 b9bf
00000080: a165 2825 f677 52bf d84f aafa b4e1 b03f
00000090: 967f 7902 a7dc babf 06b2 ff1e 82b5 a9bf
000000a0: c88f 107f ccd0 883f b115 8dbc 51e1 ab3f
000000b0: 1706 af86 0cd9 aa3f fea5 75ed fb71 a93f
000000c0: e953 2bdb 4c05 b6bf 7ed9 2cb2 373d b13f
000000d0: d517 40d1 0bd7 a5bf bf92 67b8 14f7 a53f
000000e0: a2fc d8e4 fde5 aa3f 6144 a84a 1a3f b43f
000000f0: 1391 487d ca53 b6bf c115 c009 35f1 c03f
00000100: 3709 1012 e859 a4bf 880f 40c7 c020 93bf
00000110: 0fd6 b5be 1ed0 a03f 328d 39af 9e89 a53f
00000120: 8e15 bbcd d546 6dbf e9ae 8e5d bbf8 b1bf
00000130: e34c c7ae 9b59 c0bf cda4 ad01 70c6 acbf
00000140: 9f4d f243 a79a 94bf b3dd c54d b7b4 c0bf
00000150: d513 1932 b04d b43f 5a05 ad1e 40aa b63f
00000160: 6c92 b46f 499c ac3f 9563 75b8 f65d a83f
00000170: c3ad 62d9 4be7 8dbf ebe0 8116 751b aabf
00000180: fc21 7b43 b415 ac3f 4af6 579f 5e0e c2bf
00000190: 8ca1 529d e8ef c0bf 977e b0e2 1d73 a33f
000001a0: c492 519f c377 a8bf 1833 aa35 c1dd b53f
000001b0: c570 3818 0a80 bb3f bc5b d6a1 3bb3 8abf
000001c0: 861d 18da c89d b7bf 7cfe a441 8a2e ac3f
000001d0: a4ad 68be 9233 9fbf abd6 8220 d4fd b53f
000001e0: 1497 b61b 3597 a93f 288b 383b bec8 c53f
000001f0: 3267 1670 c6b7 963f db0a 5a9b 5911 b03f
00000200: b229 9432 fb47 a8bf 6ad9 01fa 9637 b13f
00000210: 3d2f 090d 3a98 bcbf 25c5 1448 b648 b3bf
00000220: af90 c56d 49ef b7bf 6c4a f305 cf29 99bf
00000230: 1c60 acea 46b3 a2bf a851 0b93 f1ba 73bf
00000240: 3f97 183c 4bc6 a93f 564c 64c7 dfb5 af3f
00000250: f99f b2ac 0d22 b0bf 7122 4f31 07cf ac3f
00000260: 2525 b276 4f83 bfbf fd9b fbd3 e2fc c0bf
00000270: afd2 fe58 1464 bd3f f42d c89e 5d21 b53f
00000280: e576 87d8 d33f c1bf b4e2 0160 9676 c03f
00000290: aee9 57fa 215a ac3f c206 4ad8 1da4 bd3f
000002a0: b872 3999 a3c9 afbf 0281 ac5d 3a1b c0bf
000002b0: 6624 2d1b 9f0d a93f 6826 ab44 d2e7 bd3f
000002c0: 7f6d a8cf e621 b0bf 847a c304 c10f 9ebf
000002d0: ac50 b89d 65a0 7dbf 2280 035e ee4d aa3f
000002e0: 2421 8a2f 2629 a53f f8fd 7f54 660c a83f
000002f0: 4b5c cd21 f1c4 77bf 2103 1f9f 70ce a6bf
00000300: 1392 48e2 17e5 b03f 8fd3 c1f4 fe2e a73f
00000310: 0b59 2723 1ed2 74bf 21b1 1425 0713 b73f
00000320: 693e aeea c729 ae3f c18e 5b9e 84c4 b73f
00000330: 6763 9f40 b455 ba3f 9e2d f400 fa41 9ebf
00000340: 1353 5764 271d babf 3373 8446 7996 b23f
00000350: d43d 042f f91e b2bf 8efa 90de 6a3c 94bf
00000360: 6461 c494 b4d1 9abf c6f1 5a31 dd14 b8bf
00000370: e7d2 17e8 881f b53f 65e8 1cea 6e89 abbf
00000380: 78ed a9f6 ebf7 a6bf 603c d9fb 0fb8 bbbf
00000390: 5c56 b51c bb72 ae3f e0ae 8b61 5b88 a33f
000003a0: ed1a 33b3 f775 bd3f 8f94 1b98 4201 b5bf
000003b0: 7837 1f15 82cf b03f dc07 d362 5956 be3f
000003c0: 1bc8 4211 92e4 b73f 6dff 0798 22ac b83f
000003d0: 3541 95d0 cf4b b2bf b26b f07f 5b37 993f
000003e0: 252a 72c4 731b ad3f 9dde 703c eca7 a5bf
000003f0: 0da5 c480 477b b7bf 9a9f b636 b60c b8bf
00000400: 25c9 06df fddb ac3f f2a6 743f 4c70 9b3f
00000410: 1249 6e92 b6bc bdbf c8c1 4469 c4e1 b6bf
00000420: 714f 543b 6c37 ab3f 4765 b5c2 0cba b43f
00000430: a9ed 7d0f 70ff 8d3f d073 2a84 dc7e 6b3f
00000440: 6c12 69ec 64ed b23f 1621 dd76 e8fd 8f3f
00000450: c85e 3e74 fa80 b7bf fd27 0643 b477 b6bf
00000460: 77c9 6dcf 6cc0 b6bf e41d b725 a55c a1bf
00000470: 6cf6 627f 3107 aabf 3a02 651e 74e0 b0bf
00000480: 920a aed7 741d b13f 8e44 c20a 442b 9abf
00000490: 16e0 8a42 8819 b9bf 7696 cd1c c3c5 b8bf
000004a0: f0a1 967b 3b85 923f 5072 2e91 973c b23f
000004b0: 95fe ddea b67f be3f 59ac 0009 30ee b8bf
000004c0: 0a94 ed88 2e87 7ebf 72b8 080d b5d6 8cbf
000004d0: 9249 d8cd 24f9 be3f d64f 8c3a 1e87 6cbf
000004e0: 92d1 73a3 6564 753f d685 09f0 3a6d a6bf
000004f0: 8909 6c2d 82d7 b3bf f835 2722 6b87 b03f
00000500: 99e9 6cd6 9fee ba3f 3e7a 1925 e940 863f
00000510: 504a a361 ada3 b23f 3afd 5d38 5847 9cbf
00000520: 804f 7bc9 bbf6 973f c76e eed1 cd0e 7e3f
00000530: aab6 fbfb 6bf3 8a3f da04 63b8 64a7 9f3f
00000540: 90a7 5249 192d 963f 1343 1d73 ecfb b3bf
00000550: cd4e aa65 acb4 81bf 2683 8093 0fc6 b4bf
00000560: 4c4b d92c 403b c03f 8d29 eb1c 8697 ac3f
00000570: 57e0 d126 a86c a13f cd0b 00ad cd61 afbf
00000580: 3641 ec84 86b6 8bbf d6df 8e4e a151 a7bf
00000590: 7b83 748e fcfe a33f 97d5 17ee 6624 783f
000005a0: 7b3f 2864 7dd4 95bf c9dd 9c7c d973 803f
000005b0: e74e 3abf a2b2 bb3f edae 402c 3e1d 633f
000005c0: e024 38a7 c48d b43f 0e67 d1c0 5914 bbbf
000005d0: fe63 2207 8cb8 bdbf fa85 6225 d357 ac3f
000005e0: 0fa8 7662 2c3f a73f b998 778e 321f b93f
000005f0: 855c 51e1 24a9 95bf 791e dcc8 85a9 b0bf
00000600: 7d91 ef19 59da bcbf 8cf6 308e b0f7 b23f
00000610: 6105 d311 8a9e b9bf da73 a09e 5220 80bf
00000620: d95b d585 b383 bbbf 843b 56c0 267c be3f
00000630: e54e 3aac e769 bb3f 9f9b be8f 3b71 b9bf
00000640: 761b 8f45 ba7c a2bf 99ce 3d09 d884 ab3f
00000650: b97f f58b 966c be3f 51a0 e427 267c a13f
00000660: 6f72 f9c5 1220 b43f 5525 bc23 446f be3f
00000670: 4849 dc67 b439 b93f fbc5 21ff 0439 c1bf
00000680: a0a0 423b f969 b83f 7017 4b9e d438 a83f
00000690: b1d7 3aa6 6b77 b83f 3594 77a4 0b67 ab3f
000006a0: 3842 3d6e 8c4c 99bf 0851 9edc 3c74 b23f
000006b0: 7819 8097 6749 aebf 36a9 1e9f cf88 62bf
000006c0: db08 8704 01ee a03f 5e18 e3b2 52a1 93bf
000006d0: b85d 26b9 c7fa 9f3f a724 7526 eb2b b23f
000006e0: db49 7984 5e81 973f 4890 4566 2aed a53f
000006f0: 0dcf 9622 2996 58bf 001d e098 dd48 a3bf
00000700: acbc 2f8d 33af 963f e0ce d507 a1d3 92bf
00000710: a9b2 e9b7 169d adbf 783c 4d5b 5532 c1bf
00000720: cc4b 34f6 b18e 92bf 8574 bf40 4808 a8bf
00000730: 0516 ecc4 72cc a83f 7d92 29a6 5240 973f
00000740: 47fb 56ba 39dc aabf 9ff4 e695 3b3b a6bf
00000750: a64a e06a f7cf 92bf bc51 ac7b c749 a7bf
00000760: fd1f 9011 d783 a3bf 0bac abe8 eb10 bf3f
00000770: ef1d a7e3 7b47 743f 5bf4 727c 37d2 a63f
00000780: 3c3c 46ce a994 87bf cbcf 965d 2717 a5bf
00000790: 74d4 346b ede2 bebf fbc2 dfaf 9068 c03f
000007a0: a4b6 df6c 3820 be3f ddb5 9e48 10ec b2bf
000007b0: e7b4 5a36 7fae 82bf cd9a 090a b5c3 a93f
000007c0: c4f0 3816 c509 81bf 19f4 4d1a bdea adbf
000007d0: 4412 1c79 d02c a1bf 1c06 99dc 9cd8 bb3f
000007e0: 9f77 a0b0 b114 b5bf 26e1 3d8b 7826 93bf
000007f0: 39ed 7c2c 5832 ba3f 037b 3991 b203 a03f
-0.13808278978406854 -0.11039838808451757 0.07748621579552227 -0.08259203611380835 -0.00865488270811455 0.05331618094745265 -0.06278962080504182 0.014808636835613644
-0.06532772094178899 -0.05569988911621494 -0.06947573292522444 -0.021688833831687737 -0.02002433222444975 -0.06332475252184357 0.02713130274009329 -0.10141032540624997
-0.001127233863945733 0.06594401473768075 -0.10492938814559091 -0.05021292332080311 0.012117002132136082 0.054453424707883065 0.05243720192039463 0.049697754608882136
-0.08601837492763277 0.06734035587292017 -0.04265629700971344 0.04290070296318537 0.05253594797658791 0.07908787081420733 -0.08721604880026161 0.1323610589608233
-0.039748432354843315 -0.01867963043333945 0.03283783033377229 0.04206558121657124 -0.0035738159038795686 -0.07020159753909251 -0.12773462328059457 -0.05620145817267428
-0.020121205827832275 -0.1305150155783231 0.07931042883963298 0.08853531598017153 0.055879874120624645 0.04759188653651517 -0.014601318904474142 -0.05099073314426213
0.05485308955900689 -0.14106352596711452 -0.13232143098617788 0.03798764602856613 -0.047788727949215765 0.08541495857407388 0.10742247668571554 -0.013037172199615081
-0.09225135159078066 0.05504257251095354 -0.030470173713337836 0.08590436738708244 0.049981746323551374 0.17018869296688277 0.022185421553877656 0.06276474039809037
-0.04742417328278083 0.06725448230449663 -0.11169779604204862 -0.07532824764054576 -0.09349497728323074 -0.02457354997461396 -0.036524025103233465 -0.004816955232588439
0.05034098728746849 0.061934464540308085 -0.06301961389783618 0.056266999024562454 -0.12309738777016273 -0.1327174696991448 0.1148083417200023 0.08254037024033051
-0.13476036141121664 0.128619000319096 0.05537515812825987 0.11578547029969413 -0.062085258916999064 -0.1258309323684515 0.04893204886190787 0.11681856323698414
-0.0630172974564882 -0.029356971660372114 -0.007233044565072937 0.051375817276266625 0.04132956819836611 0.04696960240834963 -0.005803052827864151 -0.04454376165768382
0.06599568628787038 0.04528042543180454 -0.005083196376707964 0.09013409285825393 0.05891251315835861 0.09284237733987323 0.10287024095249607 -0.02954855566808378
-0.10200735282644428 0.07260854694000045 -0.07078511617532196 -0.019761724314089117 -0.026190587596916073 -0.09406835989916038 0.08251243273100393 -0.053782907560574945
-0.04486024271042316 -0.10827731989523803 0.059469077352940686 0.03814969602339402 0.11508129239073712 -0.08205047811095965 0.06566632285759322 0.11850508368209439
0.09333146020324572 0.09637657367420412 -0.07146929590567626 0.024625234302316286 0.056850068788737475 -0.0422967742710487 -0.09172484296563628 -0.09394396625304893
0.05636590335361039 0.026795569775606994 -0.11616078448267711 -0.08938243455919015 0.0531572172568805 0.08096389535548552 0.014647365067267897 0.003356390662999399
0.07393484851588433 0.015621009948191527 -0.09181180322627391 -0.08776404033974923 -0.08887367309742965 -0.03390995107070774 -0.05083613090526459 -0.06592488996558013
0.06685571923848446 -0.025555670887631048 -0.09804584145138082 -0.09676761105728268 0.018086366098630735 0.07123706144779729 0.11913626894056002 -0.09738445491591231
-0.007453138138633806 -0.014081396541851119 0.12098913217076859 -0.0034823980717053433 0.005222699189506479 -0.04380211048261244 -0.07750714882789657 0.06456632217233238
0.10520361886020736 0.010865994877517268 0.07281001695381772 -0.027615908089044107 0.023402151272264415 0.007338336929844486 0.013159602763575268 0.03091199279220267
0.021656413173935685 -0.07806279955299215 -0.008645388462617554 -0.0811471686470325 0.1268081873882586 0.05584353545198715 0.034032110918759066 -0.061293055885492366
-0.013531733447536536 -0.04554466327630251 0.03905476798013915 0.005894090719711718 -0.02131839679537915 0.008033465495471586 0.10819451492926256 0.002333280021067688
0.08028821070196868 -0.10577927548856911 -0.11609721349886112 0.05535754996641269 0.04540384962031407 0.09813228586390012 -0.02115304589491675 -0.06508670953564345
-0.11270672686766221 0.07409194442240102 -0.10007536826289744 -0.007874150720505502 -0.10747835175912658 0.11908189960216303 0.1070847316244073 -0.09938404330624316
-0.03610784625157397 0.05374789345560522 0.11884442250220574 0.03415030705429046 0.07861440022811349 0.11888528702197239 0.09853675399452755 -0.13455259759534485
0.09536702820571685 0.047308582613864725 0.0955722122988323 0.053520549608756 -0.024706072071525947 0.07208614717666617 -0.05915378307695368 -0.002262502203810214
0.0330658262278278 -0.01917008606758263 0.031230087924624533 0.07098264397531527 0.0229544418674069 0.04282505510744322 -0.0015006448469251949 -0.03766529551654152
0.022152715198839587 -0.018385425666067046 -0.05783911700277617 -0.1343485542115308 -0.018122463848225398 -0.046938188461106235 0.048434816873889765 0.022706309692142036
-0.05246143722205559 -0.043420660065274 -0.018371454141809317 -0.04548476586038272 -0.03811523522750802 0.12135195188936636 0.004950984899955809 0.04457257646706899
-0.011514021499151032 -0.04119227425999802 -0.12065013758986415 0.12819107616044065 0.11767914445928312 -0.07391454480121902 -0.009121888967764181 0.05032125232246685
-0.008319415798830561 -0.05843153902149129 -0.033545031341450954 0.10877399812400096 -0.08234701692751266 -0.018701442240371645 0.10233069502003368 0.031278209903339536

bias f8 [16]
00000000: b78d 7939 5f1e b2bf 9c57 3298 5129 adbf
00000010: 0638 393c 6b58 8e3f 9817 7cca a860 b3bf
00000020: 85e7 8ced 992d a43f a79a a374 f3ab c63f
00000030: defb a664 edb1 bcbf 485d 8635 e319 c2bf
00000040: 66dd de8c 8f42 ae3f 57eb 94c3 370d 14bf
00000050: 6405 9fd6 f644 ad3f 71cd 42da bbc2 b93f
00000060: 36e6 c77c 15cd aebf 2a52 473f d406 a0bf
00000070: f79b 75cc 371c 9f3f 4580 f28e 147b 9e3f
-0.07077593949502768 -0.056955861881916564 0.014817083144546227 -0.07569365447497345 0.03941041016373873 0.1771225280310393 -0.11208995539980957 -0.14141502488630864
0.05910156817065619 -7.649090629950388e-05 0.05716678018462565 0.10062765196453484 -0.06015841625407996 -0.03130210182613198 0.030381080488407233 0.029766389107521957

weight f8 [1, 16]
00000000: b0a8 1be1 560a c03f 3538 1c4c 15a1 a5bf
00000010: 4279 7c1c eadd a73f 826f 7183 3a9a b83f
00000020: c5b4 cfc2 f401 c2bf 8efa 12da 7897 d03f
00000030: 2f7b 0d12 c4d4 c5bf 1bb3 a1af 6e50 d1bf
00000040: 4bef be42 be32 a9bf 237f b66c 54c6 ba3f
00000050: c5a4 5130 b998 b83f 2822 d75a 678d 7d3f
00000060: 6cbd 818a eac7 a83f dee3 1729 25ca b93f
00000070: 9e33 7acb d154 b13f bafb 8533 615a d73f
0.12531553260425232 -0.04224459222869862 0.04661494825107805 0.09610334118900535 -0.14068469536088038 0.25924512192060767 -0.17055559998967726 -0.27053420211341156
-0.04921526493805447 0.10458877233622536 0.09608037404690879 0.007214931230415313 0.04840023937947077 0.100740740330266 0.06770049302777045 0.3648913386495526

bias f8 [1]
00000000: b49a d06c 81fa bebf
-0.12100991160023505
