Taxi Fare Prediction/model1.pth (torch, 6344 bytes, 4 tensors)

weight f8 [32, 11]
00000000: 00e5 cbd8 faa7 b7bf ea5f cdbc 64e5 cc3f
00000010: 6c17 f0e3 36c8 cd3f a598 643d 49a4 d03f
00000020: 025e 118f 447c be3f d0be 2565 613c c0bf
00000030: 41d9 822d 37f9 bcbf 4109 3180 e2a5 c8bf
00000040: 525a d457 128e 99bf 7407 68f8 fd0c c83f
00000050: deac 44d0 4b4f d5bf dbff 147a 9ac1 c6bf
00000060: 2caa 8b8c 1879 cabf e447 ee29 b61a d23f
00000070: fdd1 c9b2 1229 c53f 8c31 89eb a957 a73f
00000080: 6315 b0d7 adb6 adbf 95ca 958e fe96 d1bf
00000090: 9270 9b22 94b6 cabf fa19 cd1d f689 bb3f
000000a0: cc61 0348 ac19 c73f 67a8 de89 396a b03f
000000b0: d862 3247 000f d43f e6fa f466 0a81 b53f
000000c0: 2f1b 8183 c504 d33f 07ea f65b 1979 d53f
000000d0: 1728 356a ea42 b63f 5222 6e36 2a29 b8bf
000000e0: ed8d 1633 f413 c13f f58d 83e6 6699 afbf
000000f0: 0474 e2b7 49e6 7abf 6f6b b653 8fcd d0bf
00000100: 9340 63e0 29b0 e83f 594d 7a93 9d65 ba3f
00000110: 6446 f337 1bab c33f ec1d 2426 494c c23f
00000120: 4f25 4428 192f 9fbf 4d17 75e0 e593 7a3f
00000130: 1792 bc8e f44a b23f 159b 4138 6b7b cbbf
00000140: 2a85 99a9 ca75 bdbf 4419 bb5e 49f0 b73f
00000150: ee0b 2237 3b7c a4bf 3c16 ea3d 1ea7 d8bf
00000160: cacd 064e 80ca d03f b406 c1f6 31d6 d0bf
00000170: bc0a 0867 1fcb d23f 3d61 4a4a 6ad5 c13f
00000180: dcfa 93cd 3fe9 b73f 3f8d 9bf8 f55e 9abf
00000190: d38e 0ab7 1977 c33f a68f f26a 22ab cbbf
000001a0: 292d a3de f962 bb3f 6517 d956 78e6 b1bf
000001b0: 1d11 4594 1b64 d13f 78cd 290c 5fb0 cd3f
000001c0: 8db5 a930 b59c bb3f 5ba5 dd45 a9d1 b3bf
000001d0: 9ddf a64c fd85 d0bf f59d 109c badb d13f
000001e0: 7cc2 e584 c795 bb3f 0e32 5c32 a919 c6bf
000001f0: 23ae 6d48 ff57 c13f 745c 1ff2 c0f7 903f
00000200: 98b5 b8ac 6d13 ce3f e4b0 7898 35fb d13f
00000210: 7a96 6aa5 4eca b43f 708e e6b6 0a5b c53f
00000220: 346d 1c91 1280 bc3f 017e e7e7 f2a1 a1bf
00000230: 3aaa a60a 5e43 c73f 143b 11c5 459e a6bf
00000240: 1f64 a4a5 2f2c aabf dfcd 2a81 0505 bebf
00000250: 69cf a0fc da19 ca3f 4b53 6c6c 5619 c6bf
00000260: bf9e 37e4 74f5 c73f 760d 2a2e 373e d03f
00000270: 4673 1af4 391c c7bf eee5 e9e0 f9fc c4bf
00000280: 4a19 3616 2bd2 c63f 6f3e 475d ddb8 aabf
00000290: 5726 f21d 0974 8f3f 2826 820a def9 c3bf
000002a0: fb07 6b4d f9f5 bbbf bbf5 16c8 12bc d13f
000002b0: b807 cba6 7da5 a5bf 423d 2d93 cc53 c8bf
000002c0: a3ce e3fb e5a8 a1bf 5016 d74b 77db 9cbf
000002d0: d22e 8761 f46f babf f094 a4c1 a9f9 bfbf
000002e0: 7944 0fb6 f957 d03f 724c 9316 2036 a93f
000002f0: 7d37 99a4 a7a6 a93f e93b 4fba 6324 c13f
00000300: 0bb2 f691 35cb d0bf 49ea 047e ab7c d0bf
00000310: 82d3 d7ad 8c9f c03f 3ee7 0938 ecd2 b63f
00000320: 83b0 0ed6 4cbe c2bf 8f08 7bed a95e c53f
00000330: 54f5 7325 f11c ce3f 567a 04aa 8952 c2bf
00000340: 1be8 387a 2ba2 b8bf 4cec 6bf8 7d91 ca3f
00000350: 2163 6977 62dc babf 614b a6d7 7d15 d03f
00000360: 0889 ccc1 e676 a6bf 72e6 8966 272b d03f
00000370: ee81 0133 e15e 89bf 6d43 632e 553a cabf
00000380: 5156 31de 7a41 d0bf 921c 9fa3 b024 893f
00000390: b89f 3781 3f14 b8bf 0ae3 0ee7 da5a bfbf
000003a0: c8df 0cb6 b02a 84bf bda3 5ac9 46cb c83f
000003b0: bc96 5ce8 096c cb3f cb15 45fe 79a9 c4bf
000003c0: 28a4 ace9 a87a b9bf 506c 32f1 338b c33f
000003d0: f683 dd7a c3bc 903f bb00 c77a 097a c7bf
000003e0: 8c0e 42f5 77ab cb3f 96be cda7 7878 c93f
000003f0: 7138 8b72 f693 c8bf 8623 bf17 4ac4 d23f
00000400: 22d0 fa89 4861 c73f 0d7f 3fb2 208d c23f
00000410: 5d20 30f1 c752 cd3f ad3f 6cee 586d d0bf
00000420: 4ee1 acdf 1a93 cfbf cc33 a99f 7e41 ce3f
00000430: dfd0 999e 238a 5abf 3457 b8a6 9a67 c83f
00000440: c521 794a d3f0 cdbf b1e7 fe14 0cf8 c5bf
00000450: dde1 f0d1 8738 d2bf 32b4 79e4 54c7 d23f
00000460: 9a4e 35ac bb08 d2bf 5688 e3da c486 cd3f
00000470: f8bb 9995 b6a1 c93f d763 268b af35 99bf
00000480: f6d9 5330 2829 c8bf b112 b6da 9b2b b63f
00000490: 8f25 4575 8104 37bf 4359 f606 0523 b83f
000004a0: feb2 66b8 a2d0 b13f 4814 b23c 9cf1 c63f
000004b0: 1b60 9448 1bac ccbf 4cf0 1c58 f304 92bf
000004c0: 24fd 9d28 fd84 b83f e034 48a8 7a77 cabf
000004d0: 1ffa 2782 91d4 c93f 9427 7eff 29fa c93f
000004e0: fdcc 1e74 f4ba 8c3f 5ccc 2150 1dea c9bf
000004f0: 13c8 8bfd 208c b53f 0bca 9be4 097d c4bf
00000500: fffa 0046 c581 b13f 3d52 02ff 266f d03f
00000510: 7a26 cdcc 77c1 bcbf 940b d763 c533 9cbf
00000520: e242 ce7a 9fcd 88bf 715a c7bf d3d7 c5bf
00000530: 8eee 30c0 8e07 bdbf b9ec e59a ee47 c6bf
00000540: e92c 25d9 9c63 b63f e22b eed9 0ace bc3f
00000550: 17a0 1d1a 576d 613f ead5 b602 7f7f d03f
00000560: 53ec d070 e795 b63f b0b6 62a4 a406 cebf
00000570: 5d3a 0d78 e37d b3bf 256f b16b 07b9 d4bf
00000580: e769 c820 7cfb cc3f 44f5 dc51 68c4 d03f
00000590: 58ae 3829 8eff b73f 0942 eddd 674c a7bf
000005a0: 00d9 240f a554 d23f 0c7f c92f 135b d13f
000005b0: a14b 1d27 91c7 afbf 65ca 9a0f c924 c73f
000005c0: faa5 af83 0fb8 73bf b9d3 7545 6daf d03f
000005d0: 61e0 c41c 6f78 d8bf f15e 8982 8221 cc3f
000005e0: 40b5 7db9 3ab4 c03f 19b2 c108 0b95 cabf
000005f0: b840 4e83 b822 98bf a2eb eaba 1ac3 ad3f
00000600: d586 b291 0dd0 c5bf c871 37a9 5ee0 c8bf
00000610: 4460 6bfc 1e9d ccbf 9c5c 6cfa 6f17 c9bf
00000620: 62b5 9663 6be1 79bf d0d1 96e4 4cb4 d3bf
00000630: 665e 86a1 6212 c2bf f3c3 a606 ec11 d1bf
00000640: 82a8 cbe5 5c9d cc3f 94ab 0edb e140 c9bf
00000650: 2a58 b250 7b7f c93f 37e5 b622 ebf4 cebf
00000660: f1c6 9e11 bdc7 b43f c8b2 3ae7 2ac1 d13f
00000670: 80a6 cb17 3a87 cabf e8e5 3fc3 a521 c63f
00000680: 5340 d491 06f8 b1bf cb49 984b 45e2 c53f
00000690: a07a e3e5 a7f5 abbf aa74 601f 008e d13f
000006a0: ffe2 7c9a 0965 c9bf b621 7fd3 47b7 c93f
000006b0: dc50 2a06 7a8e c73f 6df9 f19d 2e94 d23f
000006c0: eaf5 5392 c571 c3bf 4a8a 5520 be30 c4bf
000006d0: ff91 b9ab 72b7 b6bf 8983 2158 e8c6 d5bf
000006e0: 0872 4a95 8bb2 c13f a45b 1900 6b2b b6bf
000006f0: da92 611b a611 983f 19ce c40f 311b b33f
00000700: 8b2b f511 23a8 c2bf 8a42 ce9c fe24 c7bf
00000710: 8785 b79c 702a b6bf bcb4 591b efa8 c43f
00000720: 4e70 433c a93c c2bf 3880 5df4 bee5 bc3f
00000730: a1ae 1bd8 3436 c83f c081 1594 0f4d c3bf
00000740: 612a b998 4cda a53f 1605 b61f 74d9 c1bf
00000750: c859 fd69 c255 b33f 6168 5031 3e5e 9cbf
00000760: ec0b c091 297d c43f d517 d0c0 a3a6 bcbf
00000770: 089d 1000 4136 cd3f 368b 090f 0fda b03f
00000780: 38a5 41b2 30d4 d93f 0489 3155 9a4f b83f
00000790: 361d 6893 5088 803f 5cd8 a4a9 30b4 b33f
000007a0: e0b3 1aec be93 c4bf 1cff 6923 00ce d0bf
000007b0: 7ffb fe46 6e7d c23f 7880 125e b170 b73f
000007c0: 8e11 8c14 12bf 74bf a1c7 9720 8b17 cb3f
000007d0: e623 bb8f a74a ca3f 9506 833d d678 78bf
000007e0: a0fa 5b1b 6a19 cfbf 81f6 ff00 e287 c2bf
000007f0: 938e 723c f9f5 c3bf 8918 5d2f 89e2 d0bf
-0.09240691941149137 0.22575053423747643 0.23267255906847184 0.26002722735791856 0.11908367627017216 -0.12684266508903486 -0.11317772732841026 -0.19256240138390449
-0.02495602284497018 0.18789648656098346 -0.3329648527021173 -0.17778330765759062 -0.2068205534227031 0.2828803452949826 0.16531594972515498 0.0455906963366913
-0.05803435571582829 -0.2748409645493351 -0.2086968583088305 0.10757387378280461 0.18047097698469228 0.06412086120568149 0.3134155936509564 0.08400025380704398
0.29716623155802585 0.33551630001935034 0.08695855229339632 -0.09437812641966417 0.13342144484077725 -0.061717239035512884 -0.006567275964838085 -0.2625463788514741
0.7715043432781549 0.10311302996188 0.15365925056407825 0.14295305597646235 -0.030453103144315204 0.0064887027322749315 0.07145622715740561 -0.21470394369972526
-0.11507860794656169 0.09351023257031438 -0.040010309677221176 -0.3852000813134031 0.26235969180853813 -0.2630734357554545 0.2936476236501837 0.13932541491954878
0.09340285080905225 -0.02575287179832952 0.15207215726433407 -0.2161601087765323 0.10697900472148504 -0.06992294426262687 0.2717350910136405 0.23194492429648128
0.10785992086467484 -0.07741792636592974 -0.2581780670693606 0.2790361904212369 0.107754201837233 -0.17265810927382613 0.1354979613928303 0.016570105340943234
0.2349679082266618 0.28095760240354495 0.08121196306691472 0.16684087687200444 0.1113292316699031 -0.03443869667875888 0.18174338836736742 -0.0441762736378363
-0.05111836335181174 -0.11726412204261959 0.20391404471740351 -0.17264824194048808 0.18717824119015877 0.2537973357031754 -0.1805489007864713 -0.16397021753418478
0.17828882774865412 -0.05219165576602058 0.015358039118171947 -0.15606284630875789 -0.10922201290216542 0.2771040872574663 -0.04227821980522556 -0.19005734621394238
-0.03449171733691727 -0.02818094635383367 -0.10327079182678325 -0.12490330674753003 0.2553695943761976 0.04924106860712464 0.050099600641813936 0.13392302128929082
-0.26240290884268863 -0.2576092463165521 0.1298690651744004 0.08915592544681503 -0.14643249942799139 0.16695140929920568 0.2352582390666763 -0.1431438522494825
-0.09622451528494518 0.20756506566962896 -0.1049253026516337 0.2513117414429669 -0.04387589565000566 0.2526339055399155 -0.012387999886585423 -0.20490517392184007
-0.25399657915599955 0.012277011864979568 -0.09405896095961352 -0.12248008862560425 -0.009847050243123948 0.19370350677243478 0.21423457952294267 -0.16142201343079274
-0.09952789025250353 0.1526856353492314 0.01634507596407172 -0.1834117745875171 0.2161703059720036 0.1989889926294281 -0.1920154628082318 0.2932305557156315
0.18265635239879524 0.14493187621609885 0.2290887763667823 -0.2566740349147903 -0.24667678758283745 0.23637373729653033 -0.0016198489996926341 0.19066174641255318
-0.23391190658936814 -0.17163229966336993 -0.28470035078092143 0.2934162360386977 -0.2817830259057047 0.2306753224175419 0.20024759583199603 -0.02461885725788079
-0.18875601157897365 0.08660291757230244 -0.0003512207088261715 0.09428435726144806 0.06958977701169641 0.17924836124089638 -0.22400227588582386 -0.017597009900086655
0.09577924958829392 -0.2067712136926394 0.20179957251817002 0.20294690108522373 0.014028463166914746 -0.20245710766502867 0.08416944685066623 -0.16006587660338342
0.06838639220312002 0.256784199745457 -0.11232708692582519 -0.027541240900756117 -0.01211094468615798 -0.1706490217608976 -0.11339657013098245 -0.17407019198785692
0.08745746899983299 0.11251895733418807 0.002127332802889025 0.2577817465310931 0.0882248545103022 -0.23457773234024648 -0.07613965683888453 -0.3237932731333209
0.22642470932699085 0.2619877623981959 0.09374321466810309 -0.04550480445925948 0.28641630629444137 0.2711837736769531 -0.062069450401984534 0.18081010114618148
-0.004814205744858574 0.260707204658782 -0.3823507100055448 0.2197726380716101 0.13050016457729363 -0.20767343452043077 -0.023569949163687126 0.05812915355405514
-0.17041177381638897 -0.1943472219708282 -0.2235449535862718 -0.19602775314044585 -0.006318492401459737 -0.30787966082723717 -0.14118607413250855 -0.2667188706355425
0.22355233402715063 -0.19729254909665583 0.1992029327417993 -0.24184931941071294 0.08117276840382794 0.2774150140856304 -0.20725179826631646 0.17290184053108182
-0.07019082126885338 0.17096773329883627 -0.05460858041054917 0.2742920214094037 -0.1983959202132368 0.2009057791422159 0.18403554249801501 0.29029431747758033
-0.1519095386974379 -0.15773750857177254 -0.08873669331075716 -0.34026535612616066 0.13826126851644482 -0.08660000564974141 0.023504825040066325 0.07463366160373432
-0.14575613381233796 -0.18081648499039132 -0.08658508134933217 0.16140545688123165 -0.14247622911978158 0.11288064447353541 0.18915424873499823 -0.1507892106119595
0.04268111576364642 -0.139448657497305 0.07552733504903764 -0.027703258285420754 0.16006965271671392 -0.11191771943421654 0.2282181978527904 0.06582731358643631
0.4035760632310317 0.09496464328688964 0.008072499750609734 0.07696823255250379 -0.16075884369402527 -0.2625732751694032 0.144452843347576 0.09156330630003306
-0.005065031648659247 0.2116559895653696 0.20540327566257516 -0.005974614025207399 -0.24296308837798097 -0.1447718148119073 -0.15594401790177823 -0.2638266527686786

bias f8 [32]
00000000: 4e6d 5c09 c23c ccbf 1788 c336 1767 d0bf
00000010: fe17 899a e75c c73f 74f4 aa6a a6f1 c5bf
00000020: 1c25 2f79 3ad7 8c3f d56a 1c18 6bb7 c5bf
00000030: f71d 4b45 c7d8 b3bf 79b9 6c1e a15f d0bf
00000040: df66 d00f 5358 a1bf 7ecf ac9e a839 b63f
00000050: c47a 5d0d 304a c23f 1c97 9ba8 10ff ba3f
00000060: eba6 961f 4ba4 a83f 6dfa 851e ed15 d5bf
00000070: f0f6 cd58 a369 bf3f 472f f497 b2ca c1bf
00000080: 30ba e810 4e21 c43f 9abb 3373 39c6 b53f
00000090: e08e 279c edfb c23f aa18 943b f923 a5bf
000000a0: 1b44 4b77 92d7 a33f 080e eeca 2965 ce3f
000000b0: ef0d 7b5a 7aea c8bf 6234 c5f0 6e41 bebf
000000c0: d6f2 00b8 0251 c9bf 9fc7 3eec a84a cb3f
000000d0: c10c f01f 6fb0 a83f 7063 f7d1 42fb c1bf
000000e0: 4dbc f18c 85af c8bf f627 77bd 549b 76bf
000000f0: ddea b2e6 c03d cb3f 7a9b be43 a5dd c63f
-0.22060418564874812 -0.2562921557238282 0.1825227264945965 -0.17143707474125203 0.014082390616652556 -0.16965998341841862 -0.07752652589544327 -0.2558367535702
-0.03387698715250819 0.08681730150129671 0.1428890290507835 0.10545448414231057 0.04812845955468766 -0.32946327191158425 0.12270565908508124 -0.13899834079381376
0.15726638627661904 0.08505591452170194 0.14831323742611513 -0.041290081522718694 0.03875405985093768 0.2374622574680958 -0.19465569894792575 -0.11818593385869883
-0.19778474793010642 0.21321593795215407 0.04822108521332203 -0.14048037769569133 -0.19285649663967988 -0.005519228950513258 0.21282206787676375 0.17863908584441984

weight f8 [1, 32]
00000000: 33a0 c972 92cd b8bf ef65 c2ff 1eb6 a03f
00000010: 9fdc 5493 c9e8 dd3f 6312 6cd1 d07a c3bf
00000020: e957 50fe 540f 833f 38bc 459d c9b8 b83f
00000030: e5b3 1730 108b 92bf d700 9550 bd59 a53f
00000040: 7803 db27 d81a ae3f ee8f c3e8 1067 8dbf
00000050: 8848 cd72 cd09 c0bf dd24 a575 6088 a93f
00000060: 8d9f e54c fa1a 923f 8b59 68db d3af c4bf
00000070: ef78 5014 dea9 9bbf 8d9f a3ca b958 c0bf
00000080: 0e4f 1f2e 060c c63f 316b 414f 3507 c1bf
00000090: 7217 aa25 dbe0 a13f b61f d94c 82bc bbbf
000000a0: 52fd 3af5 3a5b b4bf d4bf ae6e 625c c5bf
000000b0: 8e80 7909 673d 763f 610e d88d 0799 c13f
000000c0: 9426 f48b ddab b33f fbff 0ec0 eeae a2bf
000000d0: 04b5 87fb 7dab af3f 4c43 c791 6f22 b4bf
000000e0: a0d4 7047 15ae b13f f355 3631 5a40 ccbf
000000f0: 940d a8da d68d c0bf 544c 1f37 3304 9dbf
-0.09688678076202066 0.03263947364866825 0.4673332155975433 -0.1521855375832671 0.009306587229769252 0.09656963433893473 -0.018108609137858073 0.04170028313319712
0.058798556199241625 -0.014356739142790755 -0.12529914956627786 0.04986859737489067 0.017681036895197223 -0.16161583150160327 -0.027015180578126182 -0.12770769495477588
0.1722419476706069 -0.13303247804545884 0.03491864046831851 -0.10834516884017273 -0.07951706397124284 -0.16688185123848476 0.0054296517260753584 0.13748258996939725
0.0768412081416961 -0.03649087995972874 0.06185525603710043 -0.07865044888536693 0.06906254762800978 -0.22071387675229878 -0.1293285911234362 -0.028336334456821113

bias f8 [1]
00000000: db23 5d15 36b1 c4bf
-0.16165805857806856
