Taxi Fare Prediction/model2_3000.pth (torch, 33328 bytes, 8 tensors)

weight f8 [32, 11]
0	0x3fd3c26fab684670	0.3087424444102913
1	0x3fcd104611d0d38a	0.2270591341963633
2	0x3fc846b08d5fd42f	0.1896572771362641
3	0xbfd008d66ba25919	-0.25053940306806194
4	0xbfc09bcb3e6889f3	-0.1297544531563087
5	0xbfd34e83787247b0	-0.3016670871958196
6	0xbfc5fc649c64bda5	-0.17176492344286234
7	0x3fc21fc1aef9e18b	0.14159413379435323
8	0xbf9a5b832d4645dd	-0.02573971713861122
9	0xbfd90cf64343be35	-0.39141613549051907
10	0x3fc5bb8a0ff489a7	0.1697857454210638
11	0x3fc8e14c1f25053f	0.19437552948697065
12	0x3fc83a16005fb97a	0.189272642309742
13	0xbfafecbaf7009e19	-0.06235298409620444
14	0xbfbd2e36589b9798	-0.11398639357829976
15	0x3fbac8c15df8b8ee	0.1046257833884032
16	0xbf9624a2437f1e3c	-0.021624122018492495
17	0x3fde75cd7542497c	0.4759400982958579
18	0xbfb7af176dac6be1	-0.09251543452812384
19	0xbf925743656cf24a	-0.017911007943654668
20	0x3fba1413db3bbc7e	0.10186885931374154
21	0xbfec41fcd7a1b6df	-0.883055134921701
22	0xbfc41bda952cebf7	-0.15710003169974104
23	0x3fb98f491f6fa328	0.09984261529428962
24	0x3f860673e2679cbb	0.010754494997810551
25	0x3fbcea5658b5f9e8	0.11295070329467871
26	0x3fa7d0841e9c6686	0.046512726532637536
27	0x3fcff24f69847271	0.24958222057547944
28	0xbfc63db46f68ddfb	-0.1737580818168992
29	0x3fb403190cc909d2	0.07817226946011793
30	0x3fa0444006223b01	0.031770706890815965
31	0x3fc4f76af6c49a56	0.1638005928918626
32	0x3f63241323359cbc	0.002336537721635416
33	0xbfc5f6b5d4ba8f0b	-0.1715915001597
34	0x3fd2a17b3218e2f1	0.29110603229814475
35	0xbfcc22f766a483e4	-0.21981709014747175
36	0xbfc5d56a9adbae4a	-0.1705754524367527
37	0x3fcfc0f629fa93a9	0.2480762200331388
38	0x3fc2ee9b498a3d3c	0.14790669527835998
39	0xbfcb8e740e47c944	-0.21528483102117424
40	0xbfba976baa9052d3	-0.10387299455789938
41	0xbfc66ba49b54ff61	-0.17516000351497055
42	0x3fcd57de66b3a2aa	0.22924404158336148
43	0x3fd77d8a93fd13a1	0.36703743412027207
44	0x3fcecd1a47598e1f	0.2406342361820046
45	0xbfca7c8f86da2ccb	-0.20692628941137622
46	0xbfb99f43c38c5361	-0.10008643650173844
47	0xbfc8c1b05bec093d	-0.19341091621761022
48	0xbfae6fed16fe8c54	-0.059447678620266814
49	0xbfb5a753bb723bd8	-0.08458445860217922
50	0x3fc740d79803702d	0.1816663257840231
51	0x3fb5b42b3a3cae81	0.08478040859034232
52	0x3fb0df60f310bcb2	0.06590848859990464
53	0x3fa4f4054179232a	0.04092422889931975
54	0xbfddddaf985deb36	-0.4666556346852987
55	0xbfd07689769f52e9	-0.2572349222585176
56	0xbfd037aa2d8f92b6	-0.253397507184029
57	0x3fac5eccc932d2d0	0.05541076618229612
58	0xbfc7e5c174b03b96	-0.18669908712078315
59	0xbfc51d62bba4f2fc	-0.16495927965470247
60	0x3fd0ef9449b754f7	0.2646227569469625
61	0xbfa45259fcae0fbe	-0.03969079217407011
62	0x3f9ffda880122a1d	0.03124106675799442
63	0x3f63e5402d024acb	0.002428651183501306
64	0x3fd387ff4693584d	0.30517560856003884
65	0x3fd77fae519c90bb	0.36716802568322365
66	0xbfcda64a59b2395a	-0.23163728122421895
67	0x3fc2e92b0b378cae	0.14774072692589385
68	0xbfc6a48a74497c65	-0.17689638784483744
69	0x3f72b991529f17b6	0.0045715023679288504
70	0x3fd24e43190446be	0.2860267395309214
71	0xbfb2b06639e25ed4	-0.07300414002599648
72	0x3fc8ad965bb2e5ba	0.19279746510964718
73	0x3fc1cf1c60847ccb	0.1391330214764593
74	0x3fa3f40e12ed95d3	0.038971366701655484
75	0xbfc575b1038c610c	-0.16765415833720743
76	0x3fae6d4895d4c35c	0.05942751721375458
77	0x3fcbf79ae77757f1	0.2184938078123078
78	0x3fcea7558d5854ff	0.23948163415540333
79	0x3fa2aa8e13bd4104	0.03645748129804541
80	0xbfc9a66cecdceec6	-0.20039140286995955
81	0xbfc8b3b7745caebf	-0.1929845159696608
82	0xbfa69d5f413fc6af	-0.044169403758031016
83	0x3f851cf012f38540	0.010309100702616036
84	0xbfa4676b25b073d5	-0.039851520872822434
85	0xbfc920785b4d68f5	-0.1963034101307312
86	0x3fddee2a94381a30	0.46766151880766227
87	0x3f9e89decfdf0245	0.029822808682867814
88	0x3f944643a4823b03	0.01979928676206112
89	0x3fc66c2cad27628e	0.1751762242772838
90	0xbfc8ba15ed83a3d4	-0.19317888352750734
91	0x3fcc08f49e9e4a46	0.21902330155406186
92	0xbfc7b84857cf7a5d	-0.1853113583337799
93	0xbfcc9bb40f48d306	-0.2235016893988801
94	0x3fb3d4fddb9a2a93	0.07746874438650257
95	0xbfd1d44531cd12e0	-0.27858095038781805
96	0x3fcb50fc7906c962	0.2134090033483274
97	0x3fbb45296edb51be	0.10652407604658884
98	0xbfd20ebc6b274260	-0.282149414674711
99	0x3fc88ab1df3218d0	0.19173262975909333
100	0x3fcbf6d33978b065	0.21847000414107068
101	0xbfb0a06fdedaddbe	-0.06494807425303059
102	0x3fd15e5f33922969	0.27138500248169933
103	0x3fc776a34e364dd6	0.18330804175330567
104	0xbfc5f20ccf3a2112	-0.17144928091534745
105	0xbfdb6e7f7a3d27fa	-0.4286192601908848
106	0x3fbe12fd98ca682c	0.11747727375259903
107	0x3fb9a59b4e33806b	0.10018320712288335
108	0xbfc4ae32a5cf7131	-0.16156609626967502
109	0x3fcbbf99ff205eca	0.2167847152456857
110	0x3fd49865bd184353	0.3218016001347241
111	0xbf7379738202dbba	-0.004754496767580935
112	0xbfba7fbf769071da	-0.10351177830347727
113	0x3fd40674457245e5	0.3128939321696563
114	0x3fd20f32b82eb684	0.28217761980599954
115	0x3fb653a7f577c190	0.08721399062029023
116	0xbfc1965301b19f88	-0.13740003187853866
117	0xbfa85ad43e599b62	-0.047567970858657174
118	0xbfc09b38151eb6f0	-0.1297369101643464
119	0xbfce8ffb0bdea783	-0.2387689407308323
120	0x3fd4c75e84a7eecb	0.3246685309857013
121	0xbfc4cd112898e8a8	-0.16250814897813837
122	0x3fb139779435a859	0.06728312843702734
123	0x3fd2259d85bae897	0.28354585704404073
124	0x3fb0f1d5545aa2ad	0.06619008359360619
125	0x3f563382aa195039	0.0013550544757850015
126	0x3fb4c39f4d485951	0.08110995899946728
127	0x3fcdd087da0487ea	0.23292635102649167
128	0x3fd01342202845f1	0.25117543354380617
129	0xbfa465b6f35d1c24	-0.039838521201595506
130	0xbfd2cbb3d0ea255f	-0.2936830082113228
131	0x3fde3bac40f3e419	0.47239214270627056
132	0xbfbf8bcd5519bd51	-0.12322696044588112
133	0x3fcff8f35a3e04ea	0.24978486925468896
134	0xbfc5222a566287c8	-0.1651051446725076
135	0xbfc3eda743fab578	-0.155690105622323
136	0x3fafc2ba16029ccb	0.062032523333351706
137	0x3fbd73d7dccc8389	0.11504887714956004
138	0x3fc14448d86e1a9c	0.13489637916446362
139	0xbfc812aa22af7fb5	-0.18806959813718796
140	0xbfb6a7812aa13ad8	-0.08849341669813826
141	0xbfd9a87cdcbb165c	-0.4009086757253948
142	0x3fd90fda42f9cc7d	0.39159256497004674
143	0x3fc2ce5a3ec93b55	0.14692237916684783
144	0x3fd0364091de5bdd	0.25331129307727257
145	0x3fc828375fb2b3ff	0.18872730419880665
146	0xbfca0e0993a821b4	-0.2035533877353949
147	0x3fca80cd21311685	0.20705570336047088
148	0x3fd21c9be849188b	0.2829961555875193
149	0xbfd55ed0ede5daa4	-0.3339121173116075
150	0xbfc5b134543163f0	-0.16947034941657035
151	0x3fcf0a3f9520a20e	0.24250025540938264
152	0x3fc2152fbb354bf6	0.1412715591528408
153	0x3fad201a40ae367a	0.056885548015185486
154	0xbfd0300dfe5ead5f	-0.25293302384189603
155	0x3fce4f5952aa816c	0.23679653679301838
156	0xbf8c83a4702581fc	-0.013922962830009482
157	0x3f83852cc16aa0d5	0.009531354572871834
158	0x3fb2170c418a6a43	0.07066418266405443
159	0x3f99be7398010002	0.025140577461797882
160	0x3fc0d7ec173e563b	0.13158942351280864
161	0x3fbd9321eb7d202b	0.11552631377446747
162	0xbfcff7cb6b4a033a	-0.2497495912430397
163	0xbfb73d67d9dd99c0	-0.0907807261370186
164	0xbf9b4fc52452c072	-0.026671486227030923
165	0xbfd0dbcd41b66691	-0.26341563622700287
166	0xbfac691c8756ae64	-0.055489436646294604
167	0xbf8079086b944610	-0.008043351920181713
168	0x3fd1a0a8b50ca7d2	0.2754308479367157
169	0x3fd21f2825e52de4	0.2831516618795986
170	0x3f95fff0f068213f	0.02148415057493591
171	0xbfd55d6f75e437ce	-0.3338278437885237
172	0x3fb73489cff32167	0.09064542128465335
173	0x3fa5225685704114	0.04127760294807295
174	0x3fdb5c1a54d1247e	0.42749651225000906
175	0x3f8dcfc1cfd1fcab	0.014556421427413055
176	0x3fc5660124645486	0.1671754291243454
177	0x3fabbba505dc5edb	0.05416598984282724
178	0xbfb95934052b36f6	-0.09901738287154757
179	0xbfa577b8eaafbd7a	-0.04192903389764076
180	0x3fc2295cb605a1be	0.14188727271836216
181	0xbfced02b96380923	-0.2407278522005721
182	0xbfd36f9d0c897d56	-0.30368734573672407
183	0x3f96fa14504b82dd	0.022438352013412256
184	0x3fd12386f40c4036	0.26779340584562605
185	0x3fbecc7fac87ad95	0.12030790292890566
186	0xbfb02fd01346e704	-0.06322956534031837
187	0x3fcb27322630c067	0.21213366379516005
188	0xbfc793850f7ccc65	-0.18418944603181156
189	0xbfc67afaa6d84960	-0.17562802454683446
190	0xbfbb0ce8ecb5f3a0	-0.10566573885985386
191	0x3fc4315b82450979	0.15775627003501905
192	0xbfa52a145eace5b5	-0.04133666663842509
193	0xbfd4e6545dc6ecd4	-0.3265582004348293
194	0x3fd41137e3254f7e	0.3135509222240599
195	0x3f9e59763bcdbbff	0.02963814487469207
196	0x3fbd18341e95e967	0.11365056750029155
197	0xbfe7897f23f82594	-0.7355342581296775
198	0x3f98b433a3257fa2	0.024124914963408302
199	0x3fd4605dfce0a885	0.3183817834384473
200	0xbfa250bafb922546	-0.035772174081169214
201	0xbfa13235e9f66508	-0.03358620148646635
202	0x3fbb7e66284faa86	0.10739744648132374
203	0xbfabff0856f62bca	-0.05468011914771116
204	0x3fc405736a912814	0.15641634658305803
205	0x3fc21bef4b0ad576	0.1414775005738808
206	0xbfc7acaf5d2af8b8	-0.18495742844783591
207	0x3fcef246a0b2f722	0.24176867338786062
208	0xbfd8f6a9c7b8c846	-0.39005512718279467
209	0xbfb183f6258779c9	-0.06841982284775051
210	0xbfacd007a2b128d5	-0.05627464161860166
211	0x3fcf1f8f63f919f4	0.24315063840386097
212	0xbfa60dd395000f41	-0.0430742377648401
213	0x3f8bca8a3c2966ac	0.013569908104887084
214	0xbfd2c54391a71ad5	-0.2932900354757469
215	0xbfccc0418e800d0f	-0.22461718996064703
216	0xbfa18bd978290006	-0.03427009193228518
217	0x3fb8b5e3fc08f04f	0.09652542975612842
218	0xbfd08836b65659f2	-0.25831382566812444
219	0x3fcf3dc683718b4a	0.2440727369131202
220	0xbfd48f5ce1e678aa	-0.3212501722390565
221	0x3fd83f1248bd679f	0.37884957412244974
222	0xbf9c4063553e3805	-0.027589370801756292
223	0xbfbacd8348f78ed0	-0.10469837695523698
224	0xbfb786dbe41cda2d	-0.09190153426320853
225	0x3fbfbdb69f60e576	0.12398854628636066
226	0xbfc6c0e7cc105cc4	-0.1777620073705518
227	0x3fc493c9590d949c	0.16076008652013207
228	0xbf9d7236a89aa162	-0.028756002465031634
229	0x3fce77c88c02edcc	0.238030498852693
230	0xbfe189dc00534bf5	-0.548078537593368
231	0x3fd3083e99b69a65	0.29737820635856443
232	0x3fd0e3e40a4d0ce0	0.26390934949831824
233	0xbf9530ca94998deb	-0.020693936652959193
234	0xbfd1cb896096e6fb	-0.27804789002003333
235	0xbfbc01d91798ddb2	-0.10940319849111438
236	0x3fc9fd2fdc54c185	0.20303915270188724
237	0x3fcc04d568ba10dc	0.21889751065840002
238	0xbfd2e0272e4b8e0c	-0.2949312164402904
239	0x3fc5b77b26372ac1	0.16966189733496687
240	0xbfd065d4eefa4438	-0.25621531808525644
241	0x3fac44822795237f	0.05521017773805336
242	0xbfcb7493a063b6d8	-0.21449513751524907
243	0x3fcb882f0be352dc	0.2150934989973824
244	0xbfc4e7bb139aae2a	-0.16332186181294733
245	0xbfad69da6992439a	-0.05744822062218376
246	0x3fd0dc5851c0e913	0.2634487913488936
247	0x3fa594875a0f229b	0.042148809188408985
248	0x3fe47c0562bacaf8	0.6401392868341125
249	0xbfb41196938a4914	-0.07839337446265332
250	0x3fa31afce6806f16	0.03731527627698321
251	0x3fa2770f9735995e	0.036064612587142206
252	0x3fd68c89fb89ee8c	0.3523278194840962
253	0xbfcdbcd0721c3cd0	-0.23232465335647712
254	0x3fbaf87bd3cf1eaf	0.1053540603744476
255	0xbfbe9b4bdc4a2902	-0.11955713394323556

bias f8 [32]
0	0x3fd12a652b04a929	0.2682125969028158
1	0xbfd2e8b483783e51	-0.2954531940349386
2	0xbfcb7ad716d2fde4	-0.21468628515684351
3	0x3fb25fff34cc4256	0.07177729643832129
4	0xbf9b9b87c37cb0f9	-0.02696048861177844
5	0xbfb092fea0b9bc5a	-0.06474296020472661
6	0xbfc8281f1b9cd283	-0.18872441147108895
7	0xbfc8aa7fac0a517f	-0.19270320797353332
8	0x3fc07cc6d7901509	0.12880788350609176
9	0x3fc508fc6997ae29	0.16433673053630685
10	0xbfca80a081f944e0	-0.20705038401005194
11	0x3fb7eb02ece3d52d	0.0934297397942216
12	0xbfab5371b3bee500	-0.05337100333367495
13	0xbf9620bc6be4491c	-0.021609253010930293
14	0xbf961d154eabfa94	-0.021595318724389204
15	0xbfd090886bbce469	-0.2588215877654592
16	0x3fca57c22d831e46	0.2058031770923085
17	0x3fa2248ce46ee873	0.035435107121387775
18	0x3fbd4a4dd1d8da32	0.11441503880710327
19	0x3fa3a04fbf9f6d0a	0.03833245481629362
20	0xbfb6b07b83459a95	-0.08863040881042601
21	0xbfa5828149c0970e	-0.042011299374548824
22	0xbfd5303518921712	-0.33106734656790693
23	0x3fceb96c6233bc4a	0.24003367228530897
24	0x3fb75b519b9eadfe	0.09123716401398238
25	0xbf9be636eb501306	-0.027245386230805323
26	0xbfc2bba85c01ab32	-0.14635185711389337
27	0xbfd17ed1f00dc65f	-0.2733654827380629
28	0x3fb5b6c9a5f7dd12	0.08482036878546165
29	0xbfc4868e7de476df	-0.16035634181110134
30	0xbfd22f5583dd493a	-0.28413904073126484
31	0x3fd2a47e673d9af1	0.29128990251631054

weight f8 [64, 32]
0	0x3fb85f94104aaa6a	0.0952084102415626
1	0xbfc06e5890d75023	-0.12836749145810797
2	0x3fc14359eb3d3b2c	0.13486789690292633
3	0x3fc7399b61a72dc4	0.18144552486624665
4	0xbfc5795289e19846	-0.1677649663208191
5	0xbfbf2426175db7e2	-0.12164533682309256
6	0xbfa5a87455ca54db	-0.042300830337959026
7	0xbfb8ff08910ed9f2	-0.09764150182204626
8	0xbfb33bb49a0968c5	-0.07512978325522386
9	0xbfad64146b147c88	-0.05740417296532835
10	0x3fb9eb112826b0a2	0.10124308805706275
11	0xbfba98dd97189b21	-0.10389504374380155
12	0x3fa9da0bdc0237e6	0.05049168644573836
13	0x3fa9a9b14fa76048	0.050122776959768134
14	0x3fa890b1160ae778	0.04797891038965835
15	0xbfa589bb28e4d9c3	-0.04206642984574984
16	0x3fbf5d21147ed8d1	0.12251478910806958
17	0x3fb4e319edf60e3f	0.08159029063795574
18	0x3fba78a4aecfd037	0.10340337055078029
19	0x3fa83b9990e3f1dc	0.04732971090013269
20	0xbfb6e87b1c44bb75	-0.08948487701557702
21	0x3fc34cb1101c181e	0.15077794348343415
22	0xbf75c1fb48b03e77	-0.005311948373687528
23	0x3f83abd7f498f6b6	0.009605109359763869
24	0xbfb90f888ea26b18	-0.09789327127729697
25	0xbfb1058aa753aaf2	-0.06649080834510437
26	0xbfa124e2ad256e38	-0.033484538684856735
27	0x3f903575d2e6f4d4	0.015828934667059993
28	0x3f8726ca203b9b22	0.011304453953426444
29	0xbf68a8f6be0ce4c4	-0.003010255736083241
30	0xbf8bcff0b4e53d46	-0.013580208321086428
31	0xbfc098986f7b66d0	-0.12965684359988083
32	0x3fb069d5f53415c0	0.06411492573177835
33	0xbfc57dac1611ff56	-0.16789771154071315
34	0x3f99e42254483edd	0.025284325021913346
35	0xbfbd2f333192c111	-0.11400146446499472
36	0xbfbb56328920f8aa	-0.10678401801939921
37	0xbfbe9ca90e876f76	-0.11957794766152383
38	0xbfbed9c140e9a82e	-0.1205101760366751
39	0xbf89771bc74e7078	-0.012434212703560585
40	0xbfb41f522f289258	-0.07860292102174904
41	0xbfbb0404a3d41797	-0.1055300617191207
42	0xbfb078149b4c0b1e	-0.06433228293830637
43	0xbfab3a624d8bd25a	-0.053179809537969816
44	0x3fb68e61c767e684	0.08811007612521321
45	0xbfab3b2aae0895c1	-0.053185781235054026
46	0x3fa1a697f610de35	0.03447413328870789
47	0x3f8a3aa67462c5b0	0.012807178904355648
48	0xbfb2682fb7993d9a	-0.07190225822818377
49	0x3fbe03f572493463	0.11724790611443008
50	0x3f76c0b2e188ab9d	0.005554865602372863
51	0x3fa1176e57edde7d	0.033381889565984736
52	0xbfa61cb50a5c0de0	-0.043187768473241794
53	0x3fc396b175312143	0.15303629133473792
54	0x3fb7c67824002e63	0.09287215117381602
55	0x3fb16862902caa6a	0.06799903888592387
56	0xbfad6588a7cd8f70	-0.057415266498337725
57	0x3fb1e5bcfebfadb2	0.06991177768184434
58	0x3fbb3a19581658e3	0.1063552703911657
59	0x3fbc5ff6a8af5e84	0.11083928697859774
60	0x3fcc4e4b520bc938	0.2211393499961305
61	0x3fb538ca933fd92b	0.08289781660991895
62	0xbfb716a8806345db	-0.0901894868323078
63	0xbfb1ceb9142aff1b	-0.06956059210187641
64	0xbf8a7fab8b30d7e6	-0.012938823876634541
65	0x3fc15191fac392a9	0.1353018259461767
66	0x3fad48c3745b307a	0.05719576640476105
67	0xbfa6ec9f3fd4781f	-0.044774033109419735
68	0x3fb7b18cb9bb21db	0.09255294355819592
69	0xbfa5d7df3c6aebc4	-0.04266259777565254
70	0xbfc56be0f33ffaf0	-0.16735469701230654
71	0xbfc5bb83c2ecf337	-0.16978499429560553
72	0x3fa9c11e10817621	0.05030149413572028
73	0xbfbce3444bfd1caf	-0.11284281592553456
74	0xbf903090bebe6eb4	-0.01581026233871681
75	0xbfc1ab8077f5e96a	-0.1380463205094416
76	0x3fbd6ceee5d8c841	0.11494343863958624
77	0xbfc3e33df239015e	-0.15537237479476124
78	0xbfb520bf1c498a68	-0.08253092232329495
79	0xbfb0a52297752153	-0.06501976201719133
80	0xbfc1e317d7de2df3	-0.13974283256935358
81	0xbf5b462fcc60d32e	-0.0016646830349717578
82	0x3fbc9449b3a03eb0	0.11163769374274568
83	0xbfc73e4e2ff08ce8	-0.18158891049197412
84	0xbfa246916d36228f	-0.03569464166782154
85	0xbfb3997d6fcc05e5	-0.07656082133691873
86	0x3f7d8f86c96aaafa	0.007216955672144415
87	0xbfc4113d54be5042	-0.15677611005651398
88	0x3fae52af4bc3a4f6	0.05922458457809825
89	0xbfb4406357b5e732	-0.07910748378153867
90	0x3fc05828709fbacf	0.12769036769119288
91	0x3f76c0b1ff827d37	0.005554862313288659
92	0x3fc3647adfe89317	0.15150390561134294
93	0x3fc5edee895f04f4	0.17132360179497363
94	0xbfc65d3b4d4c8e6d	-0.1747202041088828
95	0xbfbb80186cd8176c	-0.10742333085371819
96	0x3fb9fe805783df23	0.1015396321926088
97	0x3f960a6f3b172e9d	0.021524179441071756
98	0xbf9d513be4211238	-0.028630195425892263
99	0x3f8a8882413203f6	0.01295568238697518
100	0x3fc6860d961ef27c	0.1759659750949999
101	0x3fbd8870a622d21c	0.11536315971427097
102	0x3fab71e92eb11f30	0.05360344595879807
103	0xbfb6e1933cd175d9	-0.08937950358218617
104	0x3fb5ea8057539f91	0.0856094563674772
105	0x3f96b75b21ab9816	0.022183822565146803
106	0xbfba2002e1e3b272	-0.10205095305327364
107	0x3fa1494db500f172	0.033762386651207246
108	0xbfbbb03ef74a1595	-0.10815804993952434
109	0xbfa7d82571db29f5	-0.04657094015927391
110	0x3fba5ff091f92801	0.10302642406273323
111	0x3fc1f26965caead6	0.14021031828254732
112	0x3fab4f550d5be945	0.05333963192056727
113	0x3fac9351922d6e94	0.0558114520015042
114	0xbfc102ca95d9a167	-0.1328976852121386
115	0x3fa336758d00dd2c	0.03752486559136012
116	0xbfba26ca3e0617e9	-0.10215438856366145
117	0xbfc1083e25d37fb8	-0.13306404921513404
118	0x3fc2d306cee1531c	0.14706502057620063
119	0xbfc658d1fa90a27f	-0.17458557829492702
120	0x3fc18264d8aeef7b	0.1367918069862489
121	0xbfa68dd3eaf56da4	-0.04405081027172322
122	0x3fc59863194c19e2	0.1687129853746248
123	0xbfc15a557392f457	-0.13556926863921845
124	0xbfaae95d244bbd0d	-0.052561674767156764
125	0x3fba1c5e309899d1	0.10199536024501944
126	0x3f902fd553c431af	0.01580746959466389
127	0xbfa75433cb5d302d	-0.045564287733754184
128	0x3fba50c3a2c6adc7	0.1027948639299928
129	0xbfafee02bcc4f6b3	-0.062362752478731485
130	0xbfbf4ccf4bf56ffd	-0.12226577381574084
131	0xbfaefd810e1e2119	-0.06052783295950998
132	0x3fc5db671060c4ab	0.17075813579279972
133	0xbfb1695589b96181	-0.06801352131276951
134	0xbfb3ff4b2c200b7f	-0.07811422183298865
135	0xbfbb09158f59518b	-0.10560736417511955
136	0x3fb3730a099dd37b	0.07597410902765304
137	0x3fbe873d6cdaca94	0.11925109775146786
138	0xbfb096224556a343	-0.06479086106140834
139	0x3fbd622e0d5ef215	0.11477935625493559
140	0xbf82168aaaf46549	-0.008832057325479996
141	0x3fb4216452b0d0f5	0.07863451975646625
142	0xbf97bf4d930f4865	-0.02319070062714736
143	0x3f611297befadd2a	0.0020840610303271183
144	0x3fba6df8ba3e81d1	0.10324053332306639
145	0xbf757efc685928e2	-0.005248056380489726
146	0x3fa375346ea9c3e2	0.03800357676380607
147	0x3fc6f1678837fae8	0.17924207831671102
148	0x3fc69e88e504c305	0.17671309645222535
149	0x3fc14e6a90fa8038	0.13520557478932616
150	0x3f975fae83208448	0.02282593417487913
151	0xbfc08d964cb89238	-0.12932089563504845
152	0xbfada1b25ba196ea	-0.05787427300019295
153	0x3fa6e9de81c291b6	0.044753030147407655
154	0x3fb7b264a482d20b	0.09256581322080863
155	0x3fb88e6bb0df7def	0.09592316692532397
156	0x3fc90b7e5ada5474	0.19566325603651402
157	0x3fc4cf414a65a2be	0.16257492191950534
158	0xbfabb27b24ee0eb5	-0.05409607721142377
159	0xbfaad43f993280f9	-0.05240057702144613
160	0xbfadb7f3cd73b864	-0.05804407008132342
161	0xbfc46412b02621e4	-0.15930398560546088
162	0xbfc07c545313cf7a	-0.12879423195374412
163	0x3fa0d4a3f0f5caf8	0.03287231747062508
164	0xbfbc32c9cab2a406	-0.11014996718098766
165	0xbf8fe0c6801accf2	-0.015565443787045361
166	0x3fc8814af13852fe	0.1914457013923751
167	0xbfc37dcb51a16999	-0.1522764347635757
168	0xbfb1862e01c2d7df	-0.06845366995807421
169	0x3f8bb60d18da96df	0.013530828782062297
170	0x3fc3a1303b7fd3db	0.15335657983055637
171	0x3fc76709798d9c83	0.1828319400330863
172	0x3fc34f706991319f	0.1508617892708459
173	0x3f8d7ce6279187cc	0.014398382265600328
174	0x3fc1f6afa67c396a	0.14034076337015772
175	0x3fc2a171fc10955d	0.14555191810465376
176	0x3fa0924a7327c868	0.03236611037927234
177	0x3f8887fe53215399	0.011978136932308025
178	0xbfbcabac3d768039	-0.11199451923903404
179	0x3fbf4bd32457f98c	0.12225074422165089
180	0xbfbe4475ac1262c0	-0.11823211146328116
181	0xbfc1d5472baa136b	-0.13932122833298463
182	0xbfb34d9b83d9a537	-0.07540294617651432
183	0x3faa01f61c117cf1	0.05079621403342028
184	0xbf6c8a15443f9f1d	-0.0034838118899535157
185	0xbfac0248d09f8cc6	-0.05470492884321625
186	0xbfc2c70bb1a04fc1	-0.1466993920627129
187	0x3fc3d1b66fde2e2e	0.1548374220113699
188	0x3f728b11488e3917	0.004527156365737881
189	0x3fb3f78435a44632	0.07799555120097848
190	0xbfc3f942d2a923a0	-0.15604434286276803
191	0xbfc5992aed2a6edf	-0.16873680668219657
192	0xbfb9452800ebbefc	-0.09871149084551328
193	0x3fc4a085372a5da9	0.1611486930239441
194	0xbf90c5ceabd0d9ef	-0.016379575001531362
195	0xbfa8c833fdeeae70	-0.04840242838630793
196	0x3fb37ad1c223dfd6	0.07609282483815547
197	0xbfc665873488215d	-0.17497339310672091
198	0x3fb81bb0f1743d36	0.09417253394007194
199	0xbfabf7d3c0714796	-0.05462514614249796
200	0x3f8f22e0a6a77ae9	0.015203242383845477
201	0xbf9d0dc99bee4d98	-0.028372907774224382
202	0xbfb1845a6998f76e	-0.06842579916061961
203	0xbfc445f0de66358c	-0.15838442668284036
204	0xbfc0710de7f078a9	-0.12845014405406133
205	0x3fc10611d7564b01	0.13299773230081516
206	0x3fc4c7e4645a1f12	0.16235022449495112
207	0x3f9a6f453e8f5c3f	0.025815088218078094
208	0xbfc430ca0ca99d5c	-0.15773892992295202
209	0x3f9abe1e39cc8bab	0.026115867879649517
210	0x3fbe8d890dca9165	0.11934715830517957
211	0x3fb6d670c6763af0	0.08920960278758705
212	0x3fc10fc20aa4ed26	0.13329339523066003
213	0x3fb06b3c18675557	0.06413627239029061
214	0x3fa60d9ae0973473	0.04307254783234606
215	0xbfae28b6c1618912	-0.05890437231643565
216	0x3fc6fdc7e71f45b8	0.17961977753888703
217	0x3fb5098f8185ddff	0.0821771327226699
218	0x3fcae256a55e3dc0	0.21003230166068754
219	0x3f512d2cffe5e0ca	0.0010483684014542132
220	0xbfb25df6576e3690	-0.0717462504819315
221	0xbfbfb35240b0db01	-0.1238299758850694
222	0xbfbb0280c8c0b4c5	-0.10550694371405019
223	0xbfb31f9dbf27ca77	-0.07470117489700977
224	0x3fa641a60103a0ff	0.04346960794811316
225	0x3fc4faab23519343	0.16389979576629274
226	0x3f873dbab49e8048	0.011348208081301561
227	0x3f954644522bacb9	0.020775859370513603
228	0xbfb4d523a5bf2100	-0.08137724682376657
229	0x3fc26ec1f21fbb13	0.14400505373438274
230	0xbfa7f6a55d13652b	-0.04680363427332631
231	0x3fc4608bb410b468	0.15919634144066497
232	0x3fb839b4546ad5eb	0.09463049946756256
233	0x3fbf1049364bdf79	0.1213422544059294
234	0xbfafda3e35f47397	-0.062211937032976276
235	0xbfc13899caf919de	-0.13453981791299346
236	0xbfc4196723456d74	-0.15702523443438177
237	0x3f94805cd46dad0a	0.020020914521791368
238	0xbfbd333e65ec65fd	-0.11406316746106167
239	0xbfc53799c716bd49	-0.16575929852613516
240	0x3f95487c470d2925	0.020784322582849363
241	0xbfc5214504466ca8	-0.16507780750985046
242	0x3fb29559ef782f73	0.07259142013952928
243	0xbfbf21e2c1cf361f	-0.12161080581355364
244	0xbf9386e221c57cc2	-0.01906922656177979
245	0x3f925bf462e2e937	0.01792890409044753
246	0x3fc278ccf34d4548	0.14431154136631563
247	0xbfc67f3794010c3f	-0.17575735785257682
248	0x3f7a3b605ce67a5b	0.006404282014413977
249	0xbfa053a4ce4a9d1a	-0.031888151342452
250	0x3fa30a51933f1457	0.037188100075163426
251	0xbfa1d777144d6b65	-0.03484699366409564
252	0xbfbb96d34426037d	-0.10777016080647957
253	0x3fc24761dd7eaaf2	0.14280341448951323
254	0x3fa73a930afd4c9c	0.045368762103543875
255	0x3fc3717927595ff4	0.1519004289755227

bias f8 [64]
0	0xbfaa73354a13fae3	-0.05166021851799998
1	0xbfab57edf0a4c8e4	-0.05340522348923729
2	0x3f663829ed8cd7c0	0.0027123278527154404
3	0x3fb708a406aea1be	0.08997559703005373
4	0x3fc09ae246161361	0.12972668096713405
5	0x3fb9f8c282b4a7b3	0.10145202342087493
6	0x3fba2c7f5b3913b5	0.10224147774813626
7	0x3fb3c0236be9b376	0.07715054878799585
8	0x3fc0f509493ace27	0.13247791362447112
9	0xbf73697a5445c5e6	-0.004739263389966086
10	0xbfbc3dbbcaf2a57f	-0.1103169794538612
11	0x3f928ad7ed64c604	0.018107770790441804
12	0x3fae1311c0dfd283	0.058739237589098735
13	0xbfb0d26cb11fb4f1	-0.06571082424462184
14	0xbfacc0fdaf897778	-0.05615990417275801
15	0xbfc1e3c5c43f9d24	-0.1397635658497417
16	0x3fbcd68c716146e8	0.11264875190797918
17	0x3f92ff14c0bdaf4c	0.018551182044958467
18	0xbf858207ad7dfdf9	-0.010501918775616114
19	0x3f7073864d7eae3a	0.004016422862985142
20	0xbfcc208bff2f2ba8	-0.21974325142067852
21	0xbf95be23354966b0	-0.021233129622806046
22	0x3f679e54b887e492	0.0028831152633271373
23	0xbf7904e632de9a5f	-0.006108187879283549
24	0x3fbc560a9d7ce46f	0.11068788857382271
25	0x3fc127fb0cdd3d81	0.13403261306892136
26	0xbfa87c986b981765	-0.04782558740048052
27	0xbfa105c211ed6fab	-0.03324705571023342
28	0xbfa9860587250eb5	-0.04985062861171966
29	0xbf873fdf7cda6de1	-0.011352296827047805
30	0x3fc0f483d9a2ab32	0.1324620068238232
31	0x3fc02b4ec44cfb32	0.12632164559360032
32	0xbf966b853f985473	-0.0218945331635791
33	0xbfa9455d98b0298c	-0.04935734261387656
34	0xbfb5330569475ff0	-0.08280977077754392
35	0xbf9abc3e23b1ee28	-0.026108714035656316
36	0x3fba5f77fda7a69c	0.10301923697229615
37	0xbfb44fcb2e770091	-0.0793425548972684
38	0x3fc0a48b33d3e100	0.1300214770378787
39	0xbfbdd8f7a684e1b3	-0.11659190955550151
40	0xbfbe62c63bfb8e11	-0.1186946770135864
41	0x3f8d95b9cafd8f50	0.01444573546149966
42	0xbfb9b11aadd8224e	-0.10035864586110074
43	0xbfbe0e1a3d059f93	-0.11740268697542282
44	0x3fb9da49bb2feeb5	0.10098706073761828
45	0xbf9789d95d0bbf6b	-0.02298678999335328
46	0x3fb953a9d7cdb799	0.09893285292284161
47	0x3f56e4772334f662	0.0013972438290034352
48	0x3fa3f76685be642c	0.038996890855920036
49	0x3fb7b1c3f32b3065	0.09255623518692031
50	0x3fa683f901ced673	0.0439756216723425
51	0x3f7c50e319df5f45	0.006913077462705368
52	0x3faba55427edd580	0.05399573314108874
53	0x3fb9e7ad11fcba0b	0.10119134606495821
54	0xbfb59259aba2dc17	-0.08426437797867013
55	0x3faaaa7fb5868c3e	0.05208205309761425
56	0xbf4d31f6b60d833a	-0.0008909659046417503
57	0x3f65b25c7e3b1b46	0.0026485258584644537
58	0xbfa57fe7686d8d9e	-0.0419914545989528
59	0x3fab9c76ab844b86	0.05392809718809759
60	0x3fad2d3a264e76c0	0.0569856807480682
61	0xbf9db25d92714559	-0.02900072294534559
62	0x3fa0e6d292bf3db7	0.033011036313492274
63	0xbfcafb0f006c9f77	-0.21078670044630218

weight f8 [16, 64]
0	0x3fc1160819e1231a	0.13348485244412062
1	0xbf6545500e95ae79	-0.0025965274441455658
2	0xbfc1c1987c4ef6c8	-0.138720570275771
3	0xbfa5c90f9ae3ce6c	-0.042549598367170954
4	0xbfbfcafed323d85b	-0.12419121413026472
5	0x3fbb665b171614b6	0.10703057588223683
6	0xbfcd733edae835b0	-0.2300795143968748
7	0xbfb6dc15dc833302	-0.08929573663335691
8	0xbfb1452b36e8fde3	-0.06746168222979736
9	0x3fb0818c53cabc80	0.0644767479486621
10	0xbfc06925b51f093d	-0.1282088407879857
11	0xbfc29113ba2d781e	-0.1450524005003339
12	0x3fc84006ab116139	0.18945391991543106
13	0x3fa119d2f85b32e0	0.03340014726345486
14	0xbfc8983179cb6ba5	-0.19214456984522346
15	0x3fb84484a5dd79f3	0.09479550408784813
16	0x3fb8da2c7be3f174	0.0970790674654774
17	0xbfb83f323e6bdbc3	-0.09471429847677286
18	0xbfb10fe066f8c2f1	-0.0666485072513401
19	0xbf8030da83e62378	-0.007905680799710643
20	0x3fd3e0fab82c4afc	0.3106066511692658
21	0x3fb7799d8e9bf66a	0.09169945460959075
22	0x3fc3c8d95b7769f6	0.1545669266332223
23	0xbfb15e7f1740df69	-0.06784815137586765
24	0xbfc783dcbcf0cf79	-0.18371161676042982
25	0x3f96674b41af9761	0.021878410228871718
26	0x3fb4bd5f21002587	0.08101458125761073
27	0x3fb1a00ff7f31f4f	0.06884860804995906
28	0x3f861c90e71f5431	0.010796672871871223
29	0xbfa582f24d3fca6a	-0.042014667444068746
30	0xbfaf6646fc48c9fd	-0.06132718877451635
31	0xbfa3bdd249ef4d74	-0.03855759766124836
32	0xbfac2b54d939a13c	-0.05501809264825616
33	0x3fbd5e4ea05833a1	0.11472026266728942
34	0x3f9f9a5af5bcb391	0.030862256287196358
35	0xbfc2c5c7836b49ad	-0.1466607467360296
36	0x3fd0d05d716b35be	0.26271759105733483
37	0x3fa33d9fedf0f57b	0.03757953433567259
38	0xbfc5f7869f206424	-0.1716163899407387
39	0x3fbae11774e28204	0.10499712566025471
40	0x3fc83ddcec4ae63e	0.18938790834163116
41	0x3fbda4386cb26977	0.11578705457433168
42	0x3fcc8bde376e7313	0.22301843363393256
43	0x3fba2b2f44e2a3ae	0.10222144538660302
44	0x3f9500bffaa89854	0.020510673212037325
45	0x3fa5e4be9b9e3284	0.04276080751069336
46	0x3fc7d1e30622afa2	0.18609273719391434
47	0xbfd3c5ea7d43f6db	-0.3089548323913342
48	0x3fb5c34b661628f0	0.08501120798442563
49	0xbfc663aa84616892	-0.17491656745807355
50	0x3fae0b1114ca3815	0.058678182399589364
51	0x3fc3150a1ec03e71	0.14907957555304877
52	0x3fba8ba805ea97a3	0.10369348663752347
53	0xbfc47b78aa5a5367	-0.1600180465508416
54	0xbfb924847507f8dd	-0.09821346146779626
55	0xbfc427ac15b0ba12	-0.157460699645029
56	0x3fb85e21061bd1a8	0.09518629454743766
57	0x3fcec9ad0d625c30	0.24052966264273
58	0x3fb2f13df6901298	0.07399356145476543
59	0x3fa20f41a244ebd1	0.0352726469595478
60	0xbfca4ad9a46c1428	-0.2054092457621277
61	0xbfbda23f4ceac466	-0.11575694682939427
62	0x3fbd5d559d1bfcac	0.11470542035748349
63	0x3fd0c265cf7acc08	0.2618650938194951
64	0xbfa7393b7441e739	-0.04535852235944877
65	0xbfbc73d97f0ae5f4	-0.11114272452950741
66	0xbfbb7cf84735513b	-0.1073756383751218
67	0x3fb44182d860d234	0.07912462027236061
68	0xbfc05014277a056a	-0.1274438088185364
69	0x3f7544c46cb3539b	0.005192534717214504
70	0x3f995d1758061679	0.024769177196068946
71	0xbfb18056a18ed8b7	-0.06836453861510249
72	0x3fa4d538417fea0b	0.04068923759037454
73	0xbfb91507d29bbe13	-0.09797715083890805
74	0x3f952c0da00ba819	0.020675862210659177
75	0xbfb6cbfcb354a82a	-0.0890500963038511
76	0x3fc38f5da1671a63	0.15281267529481388
77	0xbf992bf7f7c0366f	-0.024581789490233093
78	0x3f9dc01201ce7811	0.029053002701054768
79	0xbf93e3420e7b3649	-0.0194216080988581
80	0xbfae7c768777ecf3	-0.059543327366521036
81	0xbfa019deb34da89a	-0.03144737185250897
82	0x3fb24135c7b466c3	0.07130752683260781
83	0x3f7aa05cc9134da8	0.0065005897933646875
84	0xbfc03c59f26fc108	-0.12684177720758094
85	0x3fbbdf2908e9f581	0.10887390582680291
86	0xbfa8fb9f10c34deb	-0.048794718548062686
87	0xbfb7a5fee00054b8	-0.09237664192945061
88	0xbf739c9df598fdac	-0.004788033512851991
89	0x3fbe87cd9e8be446	0.1192596923900889
90	0xbf95b0974c3d3df7	-0.02118145373179733
91	0xbfb034e7904b67bd	-0.06330725930038646
92	0x3fa34902069406aa	0.0376663811712324
93	0xbfc0586e1c7bbdb2	-0.1276986731604502
94	0x3fbbd6f0620f8241	0.10874845880562935
95	0xbf7a8e7877a4cda3	-0.006483526778811396
96	0x3fa1c547e98a7620	0.03470825887528073
97	0x3fbc60d8dc2a8113	0.11085276961467043
98	0xbfb426f68bfe57e0	-0.07871952932177306
99	0xbfa4a16653856871	-0.04029388207955343
100	0xbf63b0cb117a6ee2	-0.0024036375214800823
101	0x3fa6927ce1150a91	0.04408636329255445
102	0xbfb694584f92b36f	-0.08820106451703479
103	0x3fb6a0b0ee93bb05	0.0883894522155338
104	0x3fc1ee569261b3d2	0.140086003756919
105	0x3fbf13a359ed59be	0.12139340348708225
106	0x3fc5b45cdf88dafe	0.16956673540854433
107	0xbfa3bd41c134f267	-0.03855329020959602
108	0x3fa24dde3382e1eb	0.0357503354911762
109	0x3fbf62369010eb2e	0.122592363521943
110	0xbf743d412e741af9	-0.0049412294531581075
111	0x3f7656feb2b75ca9	0.005454058565610578
112	0xbfa2939f775fd987	-0.036282523462364095
113	0xbf9f6b1d903a9e03	-0.030682050636327684
114	0xbfa5b21edaba0e72	-0.042374576759382956
115	0xbfb28f169e993dac	-0.07249585506473605
116	0xbfb4dfadc1aa4044	-0.08153806665564028
117	0x3fb6a48443c01e4b	0.08844782499374408
118	0xbfa2eb853b53c854	-0.036953128330325186
119	0x3fa8e5f920c0a505	0.04862955593882571
120	0x3fb6eac887b8bcfd	0.08952000916973542
121	0x3fb366240e922a85	0.07577729564415321
122	0xbfb8e74fa4a750a8	-0.09727952737677248
123	0x3fc005e150014575	0.12517944723598942
124	0xbfb8b7037a739c3e	-0.09654256572285733
125	0xbfa01d06a8b717d6	-0.03147145089637575
126	0x3fb80cfcecb7a941	0.09394818095430414
127	0xbfba96afbacf2db0	-0.10386179266713813
128	0xbfb2f816befd622b	-0.07409803545795828
129	0x3fb6725ab2bd2baa	0.08768240798705898
130	0x3fbe7645a0067f92	0.11899218708867768
131	0x3f54c7a1b2fd6364	0.0012682990163368152
132	0xbfb8e2d6eaa686ac	-0.09721129635593212
133	0x3fbda301ef2ccec6	0.11576854790910848
134	0x3fb4537a28448f31	0.0793987606344302
135	0xbfa89c25f6fbfb1c	-0.04806631698556016
136	0x3f99e078e5a727fc	0.025270356194404528
137	0xbf9f4a00ef99d960	-0.03055573904426845
138	0xbfa26fb703872058	-0.03600856702866001
139	0x3fc231ff434447fc	0.14215079102046946
140	0xbfbc27fa4c9dab5f	-0.10998501177315977
141	0x3fbbb47946cd935c	0.10822256067838282
142	0xbf997cb6031ed2a2	-0.024889797153906053
143	0x3fc29a00454382d5	0.14532473928468073
144	0xbfb98c61195fc335	-0.09979826802715482
145	0xbf971a0708e16f74	-0.02256022445395396
146	0x3f9e84347223e7e7	0.029801196543281974
147	0x3fa470e84b7729f2	0.03992391511163253
148	0xbf8c61b071518dbf	-0.013858202417572294
149	0x3fb3b403e919e018	0.0769655651182578
150	0xbf88e770fe78fd7a	-0.012160189405334466
151	0x3fc06607ec71b973	0.12811373753670416
152	0x3fb45362df332da0	0.07939737271515535
153	0x3faf2e8cc401473a	0.06090202229155613
154	0xbfc0b2bbdf7a0944	-0.1304545251078456
155	0xbfb2735d14db53f3	-0.07207280883024207
156	0xbfb01547ce2a2a6d	-0.06282471450155365
157	0x3fb675fe406cefaf	0.0877379329003236
158	0xbfcb789e30836953	-0.2146184670335268
159	0x3f823d34032c5d4c	0.008905798289147747
160	0xbfc213944b3e3ec7	-0.14122251199704847
161	0xbfbf4baf9d434d1f	-0.12224862660814438
162	0xbf495401992cc6ab	-0.0007729537777320846
163	0x3fb2106d9dcd4be9	0.07056317427240767
164	0x3fc34c414ebfe436	0.15076462121194972
165	0xbfbcb0b6bf542552	-0.1120714394675322
166	0xbfb8ab47655470bc	-0.09636350845215963
167	0xbfbb55da09bd53d5	-0.10677874315054166
168	0x3f9fc3e6e6c50047	0.03102074416642633
169	0xbfc285d6b9efff34	-0.1447094352624788
170	0xbfa7deb2498b06e6	-0.04662091396086314
171	0x3fba098661fe9520	0.10170783894007629
172	0xbf98a324ca1c81e2	-0.02405984386052918
173	0xbfa78d07b4432b93	-0.04599784923046637
174	0xbfbb3ce3db879300	-0.10639785871132901
175	0xbfac163583f1708c	-0.05485694156297524
176	0xbfc2b93c02edce39	-0.1462779058743864
177	0x3f8e51ba074510ad	0.01480431875882745
178	0xbfb4fbd7c0ae9825	-0.0819678159155904
179	0xbfbdaa8ede98a553	-0.11588375982741654
180	0xbfc23363f35d8433	-0.1421933115298387
181	0x3f5a15356a38986e	0.0015919705991876104
182	0x3fa1994146b8f28c	0.03437236774741334
183	0x3f698a7b38c47b9d	0.003117790858723392
184	0xbfab54a32ba68b86	-0.05338010700076894
185	0xbfa5fb7281436ce0	-0.042934015540333936
186	0x3f98714c3a6c6241	0.023869696679954314
187	0xbfa42ad6e662d7c6	-0.03938933908777602
188	0x3fbb9666bb2c2c86	0.1077636916126484
189	0xbf8b6eaadf5ed18e	-0.013394675199244668
190	0x3fc008212155446a	0.12524809005347787
191	0x3fb4b6f9bea1079e	0.08091698555020208
192	0xbfb4d954b9ea0e33	-0.08144120730326491
193	0xbfb7d041b04e0bb1	-0.0930214934760858
194	0x3fb1574ff207fe1a	0.06773852976765973
195	0xbfb7fd91acb80c72	-0.09371290652056688
196	0xbfa48b352a77cd81	-0.0401245703068538
197	0x3fa7a69408b10ef1	0.046192766247740276
198	0x3fbee390ede9f711	0.12065988357968772
199	0x3fadd52c5a0e2359	0.058267007821149526
200	0xbf8bd2ad95936ad9	-0.013585430266564046
201	0x3fb8719babaa339f	0.09548352185284024
202	0xbf434ba8ed08b6d3	-0.0005888533433499827
203	0x3f860486147c8ff3	0.010750815868568941
204	0x3f9ace9981da4ad7	0.0261787400728036
205	0xbfb052193198c180	-0.06375272236687657
206	0xbfa415cf3a4baba6	-0.03922889315239013
207	0xbfbbc196a7e9bd5c	-0.1084226760810813
208	0xbf90f10daf93b4b7	-0.016544545976036242
209	0x3fb25e4a31b7894f	0.07175124849121527
210	0x3f9ec9f91003e19c	0.03006734047173297
211	0x3f6d1546848b8cc7	0.003550183992375364
212	0x3f8da2d2d4e70141	0.014470717546715252
213	0x3f6545a47081d5df	0.0025966846188178873
214	0xbfb8b5630bd3fb46	-0.09651774443407843
215	0x3fa6ee6f5af688ea	0.044787864545712555
216	0xbfc0830edd9e6c36	-0.12899957486374242
217	0xbfa81bbf0192a03c	-0.04708668607901287
218	0x3fb48b82dfc39f10	0.0802537723826584
219	0x3f8e695a358a730b	0.014849381216941923
220	0xbf98dd5295b7de60	-0.024281778705669388
221	0xbf81515005914bcb	-0.008455872697742969
222	0xbf9e9ed9e032f2e3	-0.02990284377004827
223	0xbfac3cc89d62c828	-0.055151242458478855
224	0x3fa2a4398a9aa92c	0.03640918557114711
225	0xbfa2fcaf8a5f5d35	-0.037084088936973826
226	0x3fc1886fb58bda50	0.13697620739522387
227	0xbfabcd37873140b0	-0.05430005574510355
228	0x3faa8d8f305ec444	0.05186126199203803
229	0xbf7d58a65e84c44a	-0.007164621238460242
230	0xbfbe6fd9306eb388	-0.1188941710704069
231	0xbfb1f9df56913334	-0.07021900046784141
232	0x3fa7dbde9da3108a	0.04659934686927254
233	0x3fbbc33116308489	0.10844713966118226
234	0x3f817fce30ded238	0.00854455076828585
235	0xbf9c503d881f7786	-0.02764984267547945
236	0xbfb11506618efd5a	-0.06672706491280192
237	0xbfa0954f02166f2e	-0.03238913441165746
238	0xbfbc8cdb62600b60	-0.11152430679071079
239	0x3f7e93fc60f2df74	0.007465349058456517
240	0x3fba00581fd3adbc	0.1015677526190108
241	0x3fbced94881309ee	0.11300018617752247
242	0x3f3fe42823aae750	0.0004866216656115212
243	0xbfb52e276b3d67a0	-0.08273550384674744
244	0x3fb7b32ac0da64a2	0.09257762153937901
245	0xbfa9648bb243433e	-0.049595227728451693
246	0xbfbeb24f619324ce	-0.11990829593846117
247	0x3fa349772b255862	0.037669872299986876
248	0xbfbce1437c99a211	-0.11281225006099073
249	0xbfb7676b8aa764f3	-0.09142181525330155
250	0x3fa465913101d8e5	0.039837395889593265
251	0xbfb64a9d3dcc376b	-0.0870760227082578
252	0xbfb6420b03c8f3f6	-0.08694523661047512
253	0x3fba40d32cc99d74	0.10255164950796375
254	0x3fb7aaf2c36d61b3	0.09245221396611818
255	0x3f5a6ee726dc6821	0.001613355383091271

bias f8 [16]
0	0xbfc23fff55b6f010	-0.1425780457046817
1	0xbf7787d4bdbdf16c	-0.005744772930367108
2	0xbfa26587feef9785	-0.0359308718396241
3	0x3fb0a87f88ac480c	0.06507107817404306
4	0x3f753d54a3211fee	0.005185442556530957
5	0x3f5edb25148069d4	0.0018833028898429431
6	0xbf91d4685b47b0f7	-0.01741183335427451
7	0xbfa70abb6601ec05	-0.04500375385483583
8	0x3f87fa5e1728d7b4	0.011708006936810601
9	0xbf9325578a96e9a1	-0.01869713576682275
10	0xbf94ec49c0bd203b	-0.020432617558327797
11	0xbfb28df3e524cd16	-0.07247852653818074
12	0xbfaaea3f2cace631	-0.05256841106752253
13	0x3fbd621f72f8f94b	0.11477848584124677
14	0x3faf95b48c54a18b	0.061689035539816826
15	0x3facb19c509a19a8	0.05604256137762614

weight f8 [1, 16]
0	0x3fd09a43871aa0c4	0.25941551393271944
1	0xbfbbd8ce6dd058c6	-0.10877695256235417
2	0x3fc4d5c27168d9e0	0.1627734235532463
3	0x3f87784f536be376	0.01145994160968809
4	0x3f91099739304e6c	0.016638148179551157
5	0xbfbcd9a951df81f2	-0.11269624947409065
6	0x3f9783da9280a556	0.022963919822506305
7	0x3f9acbae1db6c62b	0.02616760307654979
8	0xbfa79c30aa23eebe	-0.04611351086529457
9	0x3faa224066ec6cd0	0.051042568744571803
10	0x3fc0c16213e07f59	0.13090158434442392
11	0x3fc0a1fdd4fa280c	0.12994358920360616
12	0x3fb1fd158a1ced66	0.07026800748729087
13	0xbfb1532c96d799b0	-0.06767538721724153
14	0x3fbd4ea01c9217d5	0.11448097894216798
15	0xbfcd88359fba8ef6	-0.2307192830968387

bias f8 [1]
0	0x3fb549b05cb3948b	0.08315565360278947
